models/train_ppoAgent_ComboGrid_gw5_h64_l10_lr0.00025_clip0.2_ent0.01_envsd0_TL-BR/seed=0/ppo_first_MODEL.pt (torch, 52328 bytes, 9 tensors)

critic.0.weight f4 [64, 59]
0.45620683 0.24689424 -0.015518057 -0.16381326 0.058767803 0.5511304 0.10867464 -0.1399204
0.060417555 -0.0059489524 0.2404001 -0.19018757 -0.14965023 -0.04537981 -0.15915197 0.029668154
-0.12693197 0.0019973333 -0.20318975 -0.44301173 0.359317 -0.0063000745 0.31666604 0.059382893
-0.16194223 -0.10035207 -0.21889372 -0.23535362 -0.05662567 0.06450074 0.17068337 -0.43668514
0.053251896 -0.35183686 -0.04105062 -0.0057954807 0.110112496 0.03815843 0.08640379 -0.07528109
0.28180057 -0.06652198 0.08829377 0.20534602 0.05639395 -0.2104106 0.11225927 -0.07066613
-0.09496315 0.0023788093 -0.09766386 -0.20088314 0.062015995 -0.09077857 0.25163892 -0.13569543
0.26912633 -0.26426926 0.4055075 0.86533445 0.48932004 -0.036460243 -0.07495165 0.011944424
0.49132472 0.05910132 -0.22058646 0.13609058 -0.025324179 0.37040785 0.22198519 0.088671505
-0.024841258 0.103323065 -0.04541882 0.0066313935 -0.058768995 0.22666478 0.20825061 -0.12874728
0.13594157 0.1114004 0.37631163 0.18431053 -0.05305712 0.1496658 -0.08676258 0.36881068
-0.15509911 -0.15515786 -0.08323444 0.2215674 -0.28239343 -0.024494281 0.04770806 0.17455906
0.42839006 -0.15240774 0.12910028 0.046552073 -0.11590109 -0.027838705 -0.21709828 -0.2744682
-0.012604451 0.029167132 0.087944195 -0.12577054 0.01880657 0.19972572 -0.11296581 -0.35580528
-0.12854142 0.16336282 0.12956302 -0.30757496 0.15062998 0.19060473 -0.28719246 -0.15835719
-0.045406025 -0.5580119 -0.174764 -0.17785057 0.055183534 -0.27268398 -0.13732648 0.10195197
0.057774406 -0.11597594 -0.29064155 0.1898452 0.06998612 0.10539214 0.32261172 -0.05246336
-0.11924275 0.1177082 -0.18416998 0.19543229 -0.08940553 0.12225876 0.17186123 -0.13914205
-0.112838835 0.12772281 -0.036310915 -0.15784869 -0.20365767 -0.087864034 0.0040679243 0.20422877
0.18571895 -0.1157444 0.10431328 -0.027814973 0.026842332 0.14646469 0.16724643 -0.2628574
0.13015793 0.12328145 -0.12339238 0.22152852 0.21863325 -0.15121637 -0.047838323 0.0763622
0.18462376 0.04965156 -0.14792423 0.290315 -0.24063224 -0.12365783 -0.35617676 -0.25629574
-0.10198247 -0.16182835 0.19265316 0.028625485 -0.08274736 0.10470315 -0.13060763 -0.1459357
-0.21839915 -0.130853 0.12578948 0.051494867 -0.004232914 0.06171821 0.16873702 0.09489785
0.0644132 0.08700319 -0.036735423 -0.06955166 -0.08669903 -0.20228654 0.225471 0.060867827
-0.11533281 0.12654604 0.4199603 0.1871834 -0.120072916 0.3090196 -0.11517472 0.15618391
0.13441691 -0.14631067 0.16336067 0.05438946 0.04203363 -0.18046759 0.27656823 0.0053224065
0.10129926 -0.0736476 0.2070789 -0.2397677 0.046140235 0.093406826 -0.5871442 0.1309303
0.3128108 -0.30011943 -0.08464762 -0.03030733 0.3263401 -0.04158959 0.09970452 0.10108217
-0.051080998 0.15082353 0.041029997 0.012622665 -0.291842 -0.19689001 0.10613348 -0.19065091
0.048255336 0.061106347 -0.22695316 0.36170045 0.05094719 0.0016981334 -0.2805179 0.17848726
-0.005470124 0.010894198 0.015160582 0.082851745 -0.3642062 -0.33180255 -0.21889688 0.015349002
00000000: f193 e93e d8d1 7c3e 733f 7ebc aabe 27be
00000010: 82b6 703d e216 0d3f cf90 de3d 4b47 0fbe
00000020: 6678 773d 6eef c2bb 722b 763e 88c0 42be
00000030: e93d 19be 2ee0 39bd bcf8 22be a10a f33c
00000040: 74fa 01be b1e5 023b f910 50be 6fd2 e2be
00000050: 66f8 b73e db70 cebb 0d22 a23e 7a3b 733d
00000060: 2fd4 25be 6385 cdbd ad25 60be 8a00 71be
00000070: 52f0 67bd f718 843d 9fc7 2e3e 3295 dfbe
00000080: a91e 5a3d f623 b4be b224 28bd 04e8 bdbb
00000090: a982 e13d 044c 1c3d 78f4 b03d f92c 9abd
000000a0: 2a48 903e ad3c 88bd 5dd3 b43d 3a46 523e
000000b0: 58fd 663d e075 57be 30e8 e53d 67b9 90bd
000000c0: 0a7c c2bd cce5 1b3b fd03 c8bd 4fb4 4dbe
000000d0: 7c04 7e3d 1dea b9bd d1d6 803e bef3 0abe
000000e0: edca 893e 4d4e 87be ae9e cf3e 8f86 5d3f
000000f0: 2888 fa3e 5657 15bd 4080 99bd 8cb2 433c
00000100: ea8e fb3e 3a14 723d 6be1 61be 545b 0b3e
00000110: a774 cfbc 19a6 bd3e 1650 633e 6899 b53d
00000120: e57f cbbc 0b9b d33d 1609 3abd 294c d93b
00000130: c2b7 70bd d01a 683e a63f 553e 54d6 03be
00000140: 4434 0b3e e525 e43d ebab c03e e6bb 3c3e
00000150: 6c52 59bd fe41 193e 94b0 b1bd c1d4 bc3e
00000160: 4dd2 1ebe b4e1 1ebe d176 aabd 91e2 623e
00000170: df95 90be 3ba8 c8bc 8769 433d 9cbf 323e
00000180: f155 db3e c610 1cbe dd32 043e 63ad 3e3d
00000190: 8d5d edbd ff0d e4bc 034f 5ebe 1987 8cbe
000001a0: e682 4ebc e9ef ee3c 161c b43d fec9 00be
000001b0: 3c10 9a3c e684 4c3e 9e5a e7bd 1c2c b6be
000001c0: 5da0 03be 9548 273e 2bac 043e 777a 9dbe
000001d0: bf3e 1a3e e32d 433e e40a 93be 6328 22be
000001e0: abfb 39bd ded9 0ebf 56f5 32be 761e 36be
000001f0: 2108 623d 3c9d 8bbe 509f 0cbe 32cc d03d
00000200: dba4 6c3d cb84 edbd f8ce 94be c866 423e
00000210: e254 8f3d d6d7 d73d 5d2d a53e d2e3 56bd
00000220: 8b35 f4bd ff10 f13d 0e97 3cbe 671f 483e
00000230: 3f1a b7bd cd62 fa3d 64fc 2f3e 417b 0ebe
00000240: 0c18 e7bd c5c9 023e c1ba 14bd 16a3 21be
00000250: a38b 50be 0ff2 b3bd 394c 853b 5921 513e
00000260: 1c2d 3e3e 660b edbd 33a2 d53d 3adc e3bc
00000270: 73e4 db3c d7fa 153e a642 2b3e 3f95 86be
00000280: 1f48 053e fc7a fc3d 25b5 fcbd 5fd8 623e
00000290: 65e1 5f3e 77d8 1abe 1ef2 43bd c963 9c3d
000002a0: 030e 3d3e 6f5f 4b3d 7379 17be 2ba4 943e
000002b0: 4c68 76be 5140 fdbd cd5c b6be 3239 83be
000002c0: 2fdc d0bd 55b6 25be df46 453e fe7f ea3c
000002d0: 7377 a9bd 9b6e d63d 02be 05be 2b70 15be
000002e0: 07a4 5fbe 54fe 05be f5ce 003e 48ec 523d
000002f0: 42b4 8abb 3ccc 7c3d 66c9 2c3e ce59 c23d
00000300: 11eb 833d ba2e b23d e277 16bd 1a71 8ebd
00000310: 438f b1bd 3424 4fbe dfe1 663e 8b50 793d
00000320: 9c33 ecbd 4995 013e 0905 d73e 01ad 3f3e
00000330: cae8 f5bd d137 9e3e b9e0 ebbd adee 1f3e
00000340: 96a4 093e 77d2 15be 0548 273e 7bc7 5e3d
00000350: 752b 2c3d 7fcc 38be 5a9a 8d3e 9567 ae3b
00000360: fd75 cf3d 8ed4 96bd 7e0c 543e aa85 75be
00000370: 8bfd 3c3d 144c bf3d 154f 16bf 9812 063e
00000380: bd28 a03e 41a9 99be bb5b adbd 1447 f8bc
00000390: 0d16 a73e d959 2abd e231 cc3d 2b04 cf3d
000003a0: 4f3a 51bd 7c71 1a3e 120f 283d 4bcf 4e3c
000003b0: 516c 95be 899d 49be 835c d93d fe39 43be
000003c0: 63a7 453d a64a 7a3d 6966 68be cd30 b93e
000003d0: 00ae 503d e793 de3a 0ba0 8fbe 5dc5 363e
000003e0: ba3e b3bb 947d 323c 1764 783c 2dae a93d
000003f0: 3c79 babe 06e2 a9be 8126 60be 617a 7b3c

critic.0.bias f4 [64]
0.101640984 0.16072911 -0.045086365 0.1636154 -0.03776706 -0.0034685177 0.0195523 -0.13742754
0.026625501 0.030257357 -0.01756732 0.049925677 -0.028282061 -0.14809386 0.11655786 -0.08493163
-0.011944774 -0.08885541 0.03335447 0.06065484 0.0037006722 -0.023816753 -0.2692713 0.018781325
-0.07254316 -0.03284253 -0.06715656 -0.105625644 0.0586538 0.0064847963 0.026629774 0.14114238
-0.07330111 0.08034008 0.34152257 -0.17412673 -0.22081766 0.0068118344 0.027807161 -0.15161695
0.057029217 0.03782995 0.016727401 0.16191307 -0.10147974 0.07813038 -0.042498346 -0.10295512
0.06888157 -0.02313929 0.10236639 0.25074106 0.034916703 -0.06839069 -0.00968845 0.050450094
-0.085760154 0.042762373 0.023997955 0.054652072 -0.035479214 -0.068444364 0.004668678 -0.070290044
00000000: 2629 d03d 2c96 243e 7bac 38bd cc8a 273e
00000010: a2b1 1abd 1250 63bb 252c a03c ceb9 0cbe
00000020: b91d da3c 47de f73c 57e9 8fbc de7e 4c3d
00000030: c8af e7bc eba5 17be e3b5 ee3d a2f0 adbd
00000040: 03b4 43bc d3f9 b5bd b29e 083d 3671 783d
00000050: fa86 723b 5a1b c3bc eedd 89be 4bdb 993c
00000060: 8291 94bd e485 06bd 6189 89bd 4252 d8bd
00000070: f83e 703d 6a7e d43b af26 da3c a187 103e
00000080: e41e 96bd 5789 a43d 0cdc ae3e 474e 32be
00000090: 061e 62be cf35 df3b d8cb e33c 7941 1bbe
000000a0: 7897 693d 94f3 1a3d e707 893c 8acc 253e
000000b0: 9cd4 cfbd d202 a03d bf12 2ebd 22da d2bd
000000c0: c811 8d3d 9c8e bdbc 78a5 d13d 2261 803e
000000d0: d104 0f3d 6b10 8cbd 4ebc 1ebc c2a4 4e3d
000000e0: 05a3 afbd 9927 2f3d 5c97 c43c dada 5f3d
000000f0: a752 11bd 8f2c 8cbd b6fb 983b 3af4 8fbd

critic.2.weight f4 [64, 64]
-0.10990041 0.20342448 -0.2884289 0.08391557 -0.03399898 -0.031182436 0.27434817 -0.12652966
0.1384112 -0.19261156 -0.0010777889 -0.07452753 -0.3176719 0.04218772 -0.1794838 -0.041393254
-0.20518526 -0.29686126 -0.11539781 -0.17534107 0.07908157 -0.27710626 0.21281499 -0.13931063
0.28119984 0.20520602 0.13014653 -0.20498893 0.0032175453 -0.21146001 0.24045168 0.39970818
-0.13572042 -0.0046982425 0.08765035 -0.045595475 -0.09884933 0.23087464 -0.11170677 -0.056544557
-0.007927474 0.47834364 0.2370151 -0.3512963 -0.19530125 0.066742465 -0.1781501 0.076032296
0.1659909 -0.36471796 -0.047358625 -0.1371328 -0.17431816 0.16811438 0.04071268 0.10144655
0.2565444 0.04001546 0.10444016 0.2621933 -0.070385166 -0.05475571 0.029084323 -0.083370954
0.0022172765 0.0155386245 0.06937653 0.48498276 -0.15944353 0.23702094 0.16709134 -0.19682337
-0.070557855 -0.12291688 0.4701529 0.009127806 0.04696315 -0.1819992 0.30890477 -0.018031836
0.2631706 0.119537055 -0.09481099 -0.1096929 0.059109375 -0.23083296 -0.45893654 -0.061231337
0.14021055 0.010276246 -0.12523794 0.11761461 -0.10298636 0.1717135 -0.19203089 0.4660611
-0.07145719 0.22115198 0.38088936 0.045193322 0.03276987 0.10709188 0.22922713 -0.052568287
0.14984585 0.03726748 0.01344261 0.22849266 -0.10193922 0.33075967 0.028355135 -0.32919994
0.25358543 0.07918098 0.4412958 0.27372223 0.11099394 0.12545073 0.07118128 0.18076654
-0.13961853 -0.2281108 -0.012568347 -0.05693554 -0.09973092 0.2524831 -0.1318433 0.0409576
0.21329148 -0.076696 -0.007649477 0.2960704 -0.026679385 -0.068412974 -0.027330847 0.13431464
-0.15066023 -0.23083141 0.0039602946 -0.14558981 0.07103678 0.1072574 0.081546 0.04343642
0.21921866 -0.248389 -0.025118215 0.23283346 -0.057513367 -0.103615254 0.09152577 0.2619271
0.04841408 -0.112528756 -0.5327152 -0.3815975 -0.053721197 -0.13812992 -0.329282 0.2197171
-0.41658023 -0.17609622 -0.098977745 0.374328 -0.08397397 -0.052309476 0.114876024 -0.040233515
0.049360458 -0.052356634 -0.05019883 -0.02490706 0.269305 -0.34767413 0.23455359 -0.2213542
-0.15414079 -0.1271495 0.06649911 0.021462027 0.2677718 -0.04272671 -0.11757146 0.17183103
0.12793133 0.031367537 0.23593865 0.018719345 0.11904456 0.25673193 -0.017141242 -0.2674992
-0.06849491 0.031179884 0.18754508 0.29579097 0.14254497 -0.061484255 -0.18090639 -0.06600523
-0.13231319 -0.028114956 0.2624113 0.0080131525 0.10107319 -0.072225116 0.033104174 -0.40629706
0.05894415 -0.07071269 -0.28049153 0.26781398 0.06808939 -0.008875616 0.120974205 0.14984348
-0.21535425 0.27741462 0.087754816 -0.11751611 -0.38319623 0.022821022 -0.2027428 -0.04921431
0.4364052 -0.17783836 -0.29747826 -0.11171978 0.34252703 0.22810847 0.2840084 0.03786908
-0.07468836 -0.23526153 0.31455395 -0.34599268 0.36562288 0.003701237 -0.21459062 0.03758766
-0.056009967 0.18450704 -0.03312996 0.17647578 0.059042 0.12710768 0.30044368 -0.24707004
-0.1218822 0.047901645 0.26149157 -0.17776158 0.02924589 -0.13535203 -0.29476675 0.12399429
00000000: 7713 e1bd 824e 503e f4ac 93be eddb ab3d
00000010: 8442 0bbd 4f72 ffbc 5d77 8c3e fe90 01be
00000020: aabb 0d3e f73b 45be 9844 8dba e4a1 98bd
00000030: e4a5 a2be 08cd 2c3d 9aca 37be f98b 29bd
00000040: 161c 52be 33fe 97be b055 ecbd 9c8c 33be
00000050: 85f5 a13d dfe0 8dbe 2cec 593e 72a7 0ebe
00000060: 6df9 8f3e 8721 523e 2245 053e 9ee8 51be
00000070: 74dd 523b f988 58be f738 763e 8da6 cc3e
00000080: 4bfa 0abe b7f3 99bb 0782 b33d 52c2 3abd
00000090: 8471 cabd 676a 6c3e 85c6 e4bd 449b 67bd
000000a0: 3ce2 01bc 75e9 f43e 16b4 723e 1cdd b3be
000000b0: 0dfd 47be 46b0 883d fb6c 36be d2b6 9b3d
000000c0: 85f9 293e 50bc babe 1efb 41bd 8a6c 0cbe
000000d0: 7680 32be 2d26 2c3e 57c2 263d 35c3 cf3d
000000e0: ca59 833e 40e7 233d b9e4 d53d 333e 863e
000000f0: 1926 90bd 8647 60bd 3f42 ee3c 64be aabd
00000100: ba4f 113b b795 7e3c 4815 8e3d a94f f83e
00000110: 2a45 23be 9eb5 723e fe19 2b3e 118c 49be
00000120: a380 90bd d8bb fbbd e2b7 f03e cb8c 153c
00000130: 6f5c 403d 005e 3abe c428 9e3e 80b7 93bc
00000140: 4cbe 863e d8cf f43d 442c c2bd aca6 e0bd
00000150: ac1c 723d 7a5f 6cbe bbf9 eabe b6cd 7abd
00000160: 5b93 0f3e b35d 283c 603e 00be eedf f03d
00000170: 83ea d2bd aad5 2f3e bfa3 44be 8f9f ee3e
00000180: 2658 92bd aa75 623e ee03 c33e a21c 393d
00000190: b339 063d fd52 db3d 84ba 6a3e d851 57bd
000001a0: 3171 193e c9a5 183d 653e 5c3c fbf9 693e
000001b0: 83c5 d0bd 5559 a93e 0749 e83c e58c a8be
000001c0: f3d5 813e a329 a23d 86f1 e13e 5225 8c3e
000001d0: ca50 e33d 2876 003e 7ec7 913d dd1a 393e
000001e0: 29f8 0ebe e195 69be 78eb 4dbc 3e35 69bd
000001f0: b93f ccbd 7745 813e ee01 07be 28c3 273d
00000200: 1569 5a3e cb12 9dbd 77a8 fabb 8a96 973e
00000210: ba8e dabc 1a1c 8cbd f1e4 dfbc c789 093e
00000220: ad46 1abe 125f 6cbe 5cc5 813b 7f15 15be
00000230: bb7b 913d c5a9 db3d 9701 a73d 63ea 313d
00000240: db7a 603e b059 7ebe b7c4 cdbc e56b 6e3e
00000250: 2393 6bbd 3c34 d4bd dd71 bb3d 4f1b 863e
00000260: d84d 463d 7a75 e6bd 0660 08bf bf60 c3be
00000270: c20a 5cbd ee71 0dbe a697 a8be 85fd 603e
00000280: 014a d5be 9152 34be d8b4 cabd eba7 bf3e
00000290: 8bfa abbd 7642 56bd 1f44 eb3d e6cb 24bd
000002a0: 312e 4a3d e973 56bd 4a9d 4dbd e409 ccbc
000002b0: 58e2 893e 5802 b2be d12e 703e adaa 62be
000002c0: 15d7 1dbe 7b33 02be af30 883d 22d1 af3c
000002d0: 6319 893e 3402 2fbd 4ec9 f0bd 79f4 2f3e
000002e0: 6e00 033e 3f7b 003d e799 713e 5059 993c
000002f0: a2cd f33d 5e72 833e ca6b 8cbc a8f5 88be
00000300: 0f47 8cbd f56c ff3c d10b 403e ea71 973e
00000310: 4ff7 113e ead6 7bbd 863f 39be c02d 87bd
00000320: 1c7d 07be 5651 e6bc c65a 863e 9949 033c
00000330: 76ff ce3d c3ea 93bd 3e98 073d 2b06 d0be
00000340: 6c6f 713d d1d1 90bd 969c 8fbe ea1e 893e
00000350: 7372 8b3d 086b 11bc 53c1 f73d 9270 193e
00000360: d385 5cbe 4a09 8e3e ccb8 b33d 49ac f0bd
00000370: 4c32 c4be 27f3 ba3c cf9b 4fbe f294 49bd
00000380: 8170 df3e 421b 36be 124f 98be 57cd e4bd
00000390: b45f af3e 4495 693e 8d69 913e 9c1c 1b3d
000003a0: 36f6 98bd 66e8 70be 370d a13e f425 b1be
000003b0: ec32 bb3e 7490 723b a5bd 5bbe 85f5 193d
000003c0: b56a 65bd 6aef 3c3e 48b3 07bd 11b6 343e
000003d0: 06d6 713d 8428 023e c1d3 993e eeff 7cbe
000003e0: 609d f9bd 8434 443d 39e2 853e 2207 36be
000003f0: 1495 ef3c b999 0abe abeb 96be b8f0 fd3d

critic.2.bias f4 [64]
0.054979183 0.082822755 0.03732194 -0.0644964 -0.0326338 -0.0030233527 -0.06978658 0.05984458
-0.07614944 0.038335364 -0.05548428 -0.059660275 -0.099111244 -0.035049822 0.010084462 -0.05560548
-0.006942952 -0.014888225 0.07071423 -0.055290658 -0.037608594 0.017320776 0.04684526 -0.05201247
0.06714782 0.017980596 -0.079414 0.026270688 -0.09636529 0.0062048896 0.0437774 0.03891267
0.018222043 -0.08582147 0.0045121876 0.077916406 0.04535562 0.054089263 0.021449775 -0.059351224
0.057420358 0.008139477 0.08364468 0.0776266 0.082099676 0.056062482 0.027214678 -0.06878681
-0.000437759 0.041034646 0.041872524 0.09372804 0.02676079 -0.046423465 0.04912111 -0.014760106
0.12654637 0.012551353 0.024483526 0.025488922 0.06033434 0.030261934 -0.08464277 0.04680553
00000000: da31 613d fa9e a93d e4de 183d b016 84bd
00000010: 05ab 05bd 7123 46bb 44ec 8ebd 971f 753d
00000020: 3df4 9bbd 8b05 1d3d 7c43 63bd 555e 74bd
00000030: d6fa cabd 6790 0fbd 4d39 253c 92c2 63bd
00000040: b481 e3bb beed 73bc 9fd2 903d 7578 62bd
00000050: 780b 1abd 4de4 8d3c d1e0 3f3d 070b 55bd
00000060: cc84 893d 0b4c 933c cfa3 a2bd a035 d73c
00000070: 2a5b c5bd 6352 cb3b ee4f 333d e462 1f3d
00000080: 6546 953c 2bc3 afbd f9da 933b a392 9f3d
00000090: d1c6 393d b48c 5d3d 70b7 af3c 451a 73bd
000000a0: 9c31 6b3d 715b 053c e74d ab3d b2fa 9e3d
000000b0: e023 a83d c6a1 653d 51f1 de3c 19e0 8cbd
000000c0: 0583 e5b9 f213 283d 8682 2b3d 7df4 bf3d
000000d0: 7239 db3c 8826 3ebd 3833 493d 5fd4 71bc
000000e0: 5f95 013e 31a4 4d3c ad91 c83c 25ce d03c
000000f0: 2421 773d e0e7 f73c 3059 adbd 28b7 3f3d

critic.4.weight f4 [1, 64]
-1.3616774 1.5549191 1.3200794 1.1906312 -1.3805609 -1.6204627 1.2145656 -1.2465293
1.4804933 -1.3736641 -1.5444707 1.3125349 -1.5269858 1.2519557 -1.3167144 1.2255472
1.2403604 -1.2130667 1.3586198 1.1995496 -1.4211622 -1.3529378 1.3902394 1.349214
-1.3066932 1.5994645 -1.2601897 -1.467486 1.2602223 1.2332453 1.2246295 1.511187
-1.2586765 -1.3242544 1.1998478 1.541462 1.3402367 -1.5380853 -1.2222768 -1.2625792
1.3946247 1.1624374 -1.1899275 -1.2345866 1.3333786 1.4718235 -1.270501 -1.2535201
-1.245799 -1.1763192 -1.2175108 1.5579511 -1.2529612 -1.3076259 -1.298411 1.3907472
-1.2042905 1.3793502 -1.1918424 1.2508928 1.2227654 1.2946409 1.228154 1.7340273
00000000: 724b aebf 9707 c73f 5df8 a83f 9a66 983f
00000010: 38b6 b0bf 526b cfbf e376 9b3f 468e 9fbf
00000020: ce80 bd3f 3ad4 afbf 37b1 c5bf 2501 a83f
00000030: 4574 c3bf 1640 a03f 198a a8bf bbde 9c3f
00000040: 21c4 9e3f c545 9bbf 41e7 ad3f d78a 993f
00000050: a5e8 b5bf 112d adbf 5df3 b13f 0bb3 ac3f
00000060: b941 a7bf 41bb cc3f e54d a1bf 95d6 bbbf
00000070: f74e a13f fbda 9d3f a9c0 9c3f 936e c13f
00000080: 501c a1bf 2b81 a9bf 9d94 993f a04e c53f
00000090: e08c ab3f fbdf c4bf 9173 9cbf 329c a1bf
000000a0: 1083 b23f c0ca 943f 8b4f 98bf ef06 9ebf
000000b0: 26ac aa3f b664 bc3f c79f a2bf 5973 a0bf
000000c0: 5776 9fbf a191 96bf 65d7 9bbf f16a c73f
000000d0: 0861 a0bf 4960 a7bf 5532 a6bf 0104 b23f
000000e0: 3126 9abf 8c8e b03f 4b8e 98bf 411d a03f
000000f0: 9483 9c3f cbb6 a53f 2634 9d3f 9bf4 dd3f

actor.0.weight f4 [64, 59]
0.08774344 -0.14669189 0.19312894 0.26070377 -0.38571206 0.14725436 -0.3088391 0.17797868
0.18033928 0.31972274 -0.15657583 -0.015558175 0.24061616 -0.048644956 0.18886556 -0.216034
-0.13931642 -0.28150517 -0.22363582 0.48041445 -0.07644335 -0.16877373 0.1351479 -0.2692039
-0.3089029 -0.38251033 -0.30131426 -0.22403216 0.46870574 0.012931931 0.032778315 0.23506361
-0.3504437 -0.26934767 -0.049950793 0.101726145 0.3231787 -0.2897002 -0.025072178 -0.17428555
-0.127044 -0.030607505 0.004051703 0.16919453 0.1846137 0.09443119 -0.021455491 0.2158241
0.04308038 0.0027660364 0.10948703 -0.19162035 0.0026456057 0.020156773 0.2952112 0.042584997
-0.002067778 -0.09834198 0.12965596 -0.11998166 0.027809039 -0.17758922 -0.02069823 -0.011267874
0.08865859 0.013160022 -0.10728128 -0.24761218 -0.24735525 0.37152892 0.30270487 -0.10147845
-0.24020267 -0.22323959 0.60729605 0.30534393 0.34881407 0.1841024 -0.21474276 0.26484865
0.2871643 -0.27021697 0.3833829 -0.13854961 0.8262661 -0.14332835 -0.23619264 -0.6077279
-0.07304992 -0.16055204 0.112096526 -0.4868231 -0.071434125 0.03586967 0.29015765 -0.07719376
-0.16622403 0.0033691528 0.24981861 -0.22273417 0.16230342 -0.18270992 -0.14995123 -0.109420665
-0.255064 -0.24169964 0.00989638 -0.22162035 0.034922354 0.008502227 -0.14449777 0.27011815
0.18777403 -0.087540664 -0.061394535 -0.0068576443 -0.25519896 0.18204296 0.21878004 -0.1638343
0.251819 -0.20871095 0.15702674 0.19316219 0.43773356 -0.16118856 0.21615294 -0.17895636
-0.10990886 -0.13838191 -0.073226236 0.31328583 0.3359152 0.2517891 -0.3436041 -0.12403503
0.2205015 -0.23679888 -0.13629164 -0.27801496 -0.13946134 -0.26806727 -0.01422928 -0.029466245
-0.067403644 -0.003265687 -0.22577858 -0.36439198 -0.06663925 -0.05226695 -0.03417448 -0.26762405
-0.13483745 0.039044682 -0.04326886 0.21471587 0.055383433 0.49067494 0.03132829 -0.054910168
0.124640524 0.22124949 0.3224366 0.33289963 -0.0066616405 0.10591107 -0.12240581 -0.23084958
-0.17848647 0.16440113 0.05649859 0.22781305 0.09485058 0.2139145 0.1429674 -0.07900032
0.12680905 -0.25060013 0.25693616 0.12322982 -0.21213365 0.110315904 -0.10846961 -0.009559819
0.18243939 -0.12714462 -0.15961629 -0.23565215 0.027298437 0.095313855 0.42047304 -0.17062518
0.16509026 -0.1903893 -0.15968134 0.056286186 -0.091286965 0.16489609 0.2443275 0.20977095
-0.22947869 0.2762522 -0.11033901 0.0132897375 -0.16792902 -0.008130233 0.20369421 -0.19117498
-0.14369671 0.026637256 0.116747476 -0.009678921 0.0059159594 0.006405926 0.1553948 0.13968576
0.06301431 -0.21938685 0.13820523 -0.32917437 0.032463238 0.03815324 0.12926748 -0.088857174
-0.031171152 -0.035532154 0.17714834 0.13596264 -0.22647956 -0.3075875 -0.016771369 -0.055856243
-0.030661263 -0.13390656 -0.11292692 -0.39956555 0.009396027 0.061684065 -0.0709151 -0.0013175972
-0.10093878 0.0037744467 -0.0136007825 0.18793626 -0.060128786 -0.07339844 0.07028083 -0.23798063
-0.072014146 -0.07159538 -0.03068138 -0.11048358 0.131691 0.20009825 0.01891888 -0.12227856
00000000: d5b2 b33d 6636 16be 98c3 453e f77a 853e
00000010: 0d7c c5be d9c9 163e 2920 9ebe 0b40 363e
00000020: dcaa 383e b3b2 a33e 6a55 20be b7e7 7ebc
00000030: 1564 763e ef3f 47bd f965 413e 0438 5dbe
00000040: f7a8 0ebe 7221 90be ca00 65be e2f8 f53e
00000050: 558e 9cbd 05d3 2cbe 3664 0a3e 18d5 89be
00000060: 8528 9ebe 65d8 c3be dd45 9abe b068 65be
00000070: 33fa ef3e 73e0 533c 8e42 063d 84b4 703e
00000080: 5b6d b3be f0e7 89be 3499 4cbd cc55 d03d
00000090: ae77 a53e 9653 94be 2b64 cdbc e977 32be
000000a0: d317 02be 97bc fabc 26c4 843b 5541 2d3e
000000b0: 600b 3d3e 2465 c13d 6dc3 afbc fe00 5d3e
000000c0: 0d75 303d 6446 353b bc3a e03d 2038 44be
000000d0: e661 2d3b d11f a53c ec25 973e 9b6d 2e3d
000000e0: 8f83 07bb 8567 c9bd 88c4 043e f2b8 f5bd
000000f0: c8cf e33c f3d9 35be 568f a9bc e49c 38bc
00000100: a392 b53d 229d 573c 4ab6 dbbd 0c8e 7dbe
00000110: b24a 7dbe 0a39 be3e 22fc 9a3e efd3 cfbd
00000120: b0f7 75be eb98 64be c177 1b3f 0a56 9c3e
00000130: c297 b23e 5785 3c3e 87e5 5bbe 3e9a 873e
00000140: 3307 933e e159 8abe c34a c43e f3df 0dbe
00000150: 2d86 533f abc4 12be 7cdc 71be 0e94 1bbf
00000160: 329b 95bd c167 24be dd92 e53d e140 f9be
00000170: 0e4c 92bd 13ec 123d 8b8f 943e c317 9ebd
00000180: a236 2abe 01cd 5c3b 73d0 7f3e 6d14 64be
00000190: de32 263e 4f18 3bbe d18c 19be f117 e0bd
000001a0: c097 82be 1c80 77be 6d24 223c 72f0 62be
000001b0: be0a 0f3d ed4c 0b3c 39f7 13be ed4c 8a3e
000001c0: d647 403e 8548 b3bd d678 7bbd 17b6 e0bb
000001d0: 70a9 82be 7869 3a3e e007 603e 2ec4 27be
000001e0: 6cee 803e 53b8 55be 9ecb 203e 4fcc 453e
000001f0: 9d1e e03e 9d0e 25be 3257 5d3e 5640 37be
00000200: e517 e1bd fdb3 0dbe a3f7 95bd 0067 a03e
00000210: 14fd ab3e 80ea 803e e0ec afbe 1406 febd
00000220: 25cb 613e 687b 72be 0990 0bbe fa57 8ebe
00000230: f4ce 0ebe 1d40 89be ed21 69bc 3263 f1bc
00000240: ec0a 8abd 2305 56bb 8032 67be 9691 babe
00000250: 297a 88bd df15 56bd 8afa 0bbd 0506 89be
00000260: d412 0abe 51ed 1f3d b03a 31bd 7ade 5b3e
00000270: bdd9 623d bf39 fb3e 1852 003d 7ce9 60bd
00000280: 8843 ff3d 3a8f 623e 6916 a53e d271 aa3e
00000290: e449 dabb e7e7 d83d e6af fabd d563 6cbe
000002a0: 28c5 36be c558 283e 116b 673d d347 693e
000002b0: 0541 c23d 670c 5b3e 0c66 123e ebca a1bd
000002c0: 3bda 013e a94e 80be 238d 833e ea5f fc3d
000002d0: 9039 59be 4eed e13d 5125 debd c9a0 1cbc
000002e0: 64d1 3a3e 3332 02be 7472 23be cc4e 71be
000002f0: f9a0 df3c e933 c33d 3e48 d73e 5eb8 2ebe
00000300: 6c0d 293e 6af5 42be 8183 23be 588c 663d
00000310: a9f4 babd 85da 283e fd30 7a3e 32ce 563e
00000320: 76fc 6abe ee70 8d3e 6bf9 e1bd 33bd 593c
00000330: 96f5 2bbe ab34 05bc 3795 503e 60c3 43be
00000340: 3b25 13be 6036 da3c 4d19 ef3d 5694 1ebc
00000350: aada c13b cde8 d13b d01f 1f3e c909 0f3e
00000360: a60d 813d f2a6 60be ac85 0d3e 8b89 a8be
00000370: 2cf8 043d 9246 1c3d b25e 043e c0fa b5bd
00000380: a55a ffbc 2a8a 11bd 6066 353e ca39 0b3e
00000390: 42ea 67be 1c7c 9dbe 1c64 89bc 84c9 64bd
000003a0: 542d fbbc cd1e 09be 3b46 e7bd db93 ccbe
000003b0: cbf1 193c 6ea8 7c3d f03b 91bd 3ab3 acba
000003c0: feb8 cebd b55c 773b d1d5 5ebc 5d72 403e
000003d0: 9a49 76bd ec51 96bd 65ef 8f3d 32b1 73be
000003e0: 277c 93bd 99a0 92bd 8457 fbbc 3745 e2bd
000003f0: 01da 063e 8ee6 4c3e c4fb 9a3c 2f6d fabd

actor.0.bias f4 [64]
0.1506288 0.064978614 0.011063395 -0.074334554 0.12075679 0.2403257 0.36244074 0.08242747
0.14655362 0.21224011 0.22584043 0.2792328 0.057377256 0.1499248 -0.007906576 -0.06646571
0.10142819 0.14489155 -0.014183187 0.17743865 0.09732475 0.023097081 0.26634756 0.02426376
-0.04296535 0.1556983 0.095957816 0.3209353 0.38996214 -0.030518621 0.107466176 0.09478963
-0.01542553 0.0848999 -0.06390953 0.07234136 -0.08440327 0.053318743 0.3812393 0.13994505
0.28451976 -0.014553628 0.028049463 -0.009666828 0.13487925 0.018933507 0.11948055 0.19532835
0.12860215 0.32638896 0.12760942 0.37330648 0.036092516 0.060350444 -0.049955036 0.024294177
0.32567856 0.26713708 0.030596696 -0.019048663 -0.07661567 -0.13593815 0.007140936 0.27400076
00000000: 703e 1a3e 8213 853d 3e43 353c b73c 98bd
00000010: 564f f73d f117 763e d591 b93e bccf a83d
00000020: 2712 163e 7955 593e b742 673e 9af7 8e3e
00000030: 6a04 6b3d e385 193e 958a 01bc 2d1f 88bd
00000040: 95b9 cf3d 735e 143e 9960 68bc 7ab2 353e
00000050: 3352 c73d 1736 bd3c b55e 883e cbc4 c63c
00000060: 6ffc 2fbd 606f 1f3e 8885 c43d a251 a43e
00000070: 1ea9 c73e 3002 fabc 3a17 dc3d 1121 c23d
00000080: 5dbb 7cbc 00e0 ad3d 00e3 82bd b527 943d
00000090: 9fdb acbd c164 5a3d cc31 c33e c14d 0f3e
000000a0: 93ac 913e 5772 6ebc fdc7 e53c 9e61 1ebc
000000b0: c91d 0a3e 711a 9b3c 38b2 f43d 2804 483e
000000c0: 48b0 033e 741c a73e 0bac 023e 0722 bf3e
000000d0: bfd5 133d 0732 773d a79d 4cbd 9504 c73c
000000e0: 57bf a63e 31c6 883e eca5 fa3c f10b 9cbc
000000f0: ade8 9cbd 5f33 0bbe 83fe e93b d449 8c3e

actor.2.weight f4 [3, 64]
0.6500623 -0.84238625 0.16676585 -0.03839761 -0.73633224 0.15563948 -0.15052317 -0.06721996
-0.4482129 0.684107 -0.20675744 0.19950949 0.2367399 -0.79283637 0.324334 -0.7195918
-0.044851482 -0.26281995 0.34272307 -0.027595097 0.33652008 0.31515187 -0.5028565 -0.41361147
-0.50520283 -0.96421015 0.48222083 0.7160908 0.18927683 -0.28010598 0.27454987 -0.82712
-0.5339969 -0.9738952 -0.5969169 0.19363229 -0.13632488 -0.3159979 0.41992995 0.25627103
-0.10809491 -0.55955696 -0.4509816 -0.39263436 -1.0685719 0.5315196 0.39899096 0.31604522
-0.53032225 0.48343846 -0.26627365 0.3650168 -0.17294137 0.12171463 -0.35659385 0.5433471
0.8730625 -0.16679461 -0.7413458 -0.38747936 -0.6322972 -0.090147816 -0.39289773 0.11654219
-0.17793705 0.48008174 -0.037565574 0.016505899 -0.48728102 0.44245803 0.44979686 0.3554634
0.6430892 -0.339317 0.29072723 0.14244792 -0.8378716 0.14415269 -0.35505348 0.3860537
0.1512302 0.94800884 -0.44249687 0.5471422 -0.12266896 -0.24052724 0.7537328 -0.18903464
-0.09013975 0.14427894 -0.73348606 -0.08683418 0.6556334 0.34487942 -0.03861972 0.77696586
0.634951 0.36032352 -0.09712982 -0.72804284 -0.6261775 0.21185607 -0.11932511 -0.019267887
0.32617584 0.2718886 0.3560734 0.38228142 0.10754685 -0.78670025 -0.036533374 -0.13125362
-0.0789766 -0.13483882 0.4919094 0.6016985 0.13869345 -0.9151603 -0.106701486 -0.7754613
-0.01979004 0.40358478 0.04690979 0.024213433 -0.58940387 -0.3936638 0.24839997 0.45502537
-0.067239605 -0.025773646 -0.34294495 -0.30573696 0.7955944 -0.29153734 -0.7354989 -0.14717436
-0.36871517 -0.5224531 -0.65514827 -0.57600003 0.34119183 0.417234 0.61142117 -0.059880134
-0.37819868 -0.18629985 0.29612315 -0.7879402 -0.2266964 0.057154678 -0.41415697 0.9280985
0.53809977 0.91366005 0.053192757 -0.6545589 -0.9228587 -0.3141012 -0.16269903 -0.08661711
-0.061626434 0.34052464 0.6782954 -0.35644016 0.5153892 -0.39806858 -0.90871835 -0.45412406
-0.88793963 0.2273602 -0.014610294 0.44936806 0.45730114 0.16685614 -0.26387048 -0.47440323
0.22192112 -0.5547631 -0.32221183 -0.7696695 -0.3391568 0.40609986 0.73861575 0.15859358
-0.4258667 -0.79157174 0.6321449 0.50883216 0.5188754 0.2841623 -0.13042979 -0.5722166
00000000: 7c6a 263f a0a6 57bf abc4 2a3e d046 1dbd
00000010: 4580 3cbf f55f 1f3e bf22 1abe 9eaa 89bd
00000020: 297c e5be a321 2f3f 39b8 53be 374c 4c3e
00000030: f26b 723e 53f7 4abf 1b0f a63e 2b37 38bf
00000040: 30b6 37bd 5690 86be 6679 af3e 1d0f e2bc
00000050: 5c4c ac3e 965b a13e 34bb 00bf e2c4 d3be
00000060: f954 01bf 7ad6 76bf a6e5 f63e ba51 373f
00000070: c9d1 413e 0d6a 8fbe cd91 8c3e 23be 53bf
00000080: 05b4 08bf 3251 79bf 8ccf 18bf 8b47 463e
00000090: c098 0bbe 7aca a1be 0f01 d73e f535 833e
000000a0: dd60 ddbd 203f 0fbf 0fe7 e6be 5f07 c9be
000000b0: f7c6 88bf ab11 083f 8b48 cc3e aed0 a13e
000000c0: 33c3 07bf 3f85 f73e 0555 88be 7be3 ba3e
000000d0: 8b17 31be 8545 f93d 7893 b6be cc18 0b3f
000000e0: 0681 5f3f 35cc 2abe d7c8 3dbf b263 c6be
000000f0: 3bde 21bf 6b9f b8bd e429 c9be acad ee3d
00000100: 2135 36be 46cd f53e 5cde 19bd 6137 873c
00000110: e67c f9be dc89 e23e c64b e63e 4cff b53e
00000120: 7ea1 243f f5ba adbe 33da 943e dedd 113e
00000130: c17e 56bf c39c 133e 92c9 b5be d5a8 c53e
00000140: 17dc 1a3e b5b0 723f f38e e2be 8311 0c3f
00000150: dd39 fbbd c64c 76be a2f4 403f 4c92 41be
00000160: 309b b8bd dcbd 133e bec5 3bbf 1ed6 b1bd
00000170: 97d7 273f 0994 b03e b62f 1ebd 3ce7 463f
00000180: 268c 223f 537c b83e 00ec c6bd 0461 3abf
00000190: 2b4d 20bf ccf0 583e b960 f4bd b0d7 9dbc
000001a0: 8500 a73e fc34 8b3e 414f b63e 64ba c33e
000001b0: 8641 dc3d 3065 49bf 05a4 15bd 5967 06be
000001c0: 7cbe a1bd 3013 0abe 8ddb fb3e ea08 1a3f
000001d0: a805 0e3e f247 6abf 4f86 dabd a284 46bf
000001e0: b91e a2bc aaa2 ce3e 7b24 403d 405b c63c
000001f0: 2ce3 16bf 4d8e c9be 905c 7e3e 16f9 e83e
00000200: ebb4 89bd 4123 d3bc 7b96 afbe 8e89 9cbe
00000210: 13ac 4b3f 6244 95be a849 3cbf e0b4 16be
00000220: 3cc8 bcbe 7dbf 05bf ccb7 27bf bd74 13bf
00000230: b2b0 ae3e b29f d53e 1986 1c3f df44 75bd
00000240: 42a3 c1be 63c5 3ebe 749d 973e 73b6 49bf
00000250: 1a23 68be 061b 6a3d 620c d4be dd97 6d3f
00000260: e8c0 093f a0e5 693f a6e0 593d 2c91 27bf
00000270: 7840 6cbf dfd1 a0be 939a 26be 5064 b1bd
00000280: 006c 7cbd 3f59 ae3e c4a4 2d3f 537f b6be
00000290: 8cf0 033f a5cf cbbe c4a1 68bf f382 e8be
000002a0: 0350 63bf 1dd1 683e 0460 6fbc 9213 e63e
000002b0: 6023 ea3e 56dc 2a3e 081a 87be fbe4 f2be
000002c0: 4a3f 633e f404 0ebf f3f8 a4be 0f09 45bf
000002d0: f6a5 adbe 52ec cf3e ec15 3d3f 5b66 223e
000002e0: 330b dabe 72a4 4abf 40d4 213f d342 023f
000002f0: 05d5 043f b97d 913e 638f 05be c97c 12bf

actor.2.bias f4 [3]
0.15391937 0.0076050255 -0.21503742
00000000: 0a9d 1d3e 9433 f93b c532 5cbe
