models/train_ppoAgent_ComboGrid_gw5_h64_l10_lr0.00025_clip0.2_ent0.01_envsd2_BR-TL/seed=0/ppo_first_MODEL.pt (torch, 52328 bytes, 9 tensors)

critic.0.weight f4 [64, 59]
0	0xbd67041d	-0.056400407
1	0x3d35241b	0.044223886
2	0xbdff97e3	-0.12480142
3	0xbed07c43	-0.40719804
4	0xbe8ff747	-0.28118345
5	0x3ec98ed4	0.39366782
6	0x3d3da583	0.046300422
7	0xbea8dd77	-0.32981464
8	0xbdaccbf2	-0.08437337
9	0xbeaab427	-0.3334057
10	0x3e5940c5	0.21216114
11	0xbe6a6e63	-0.22893672
12	0xbe465ca2	-0.19371274
13	0xbe5a38e0	-0.21310759
14	0xbef172d6	-0.47157925
15	0xbe4ad453	-0.19807558
16	0xbe7bbeb4	-0.24584466
17	0xbdfffe4a	-0.12499674
18	0xbec3b380	-0.38222885
19	0xbf1ded92	-0.6169063
20	0xbe03290d	-0.12808628
21	0xbeb91343	-0.36147508
22	0x3e1a1f72	0.15051058
23	0xbe0ed0a0	-0.13946772
24	0xbf109c95	-0.56488925
25	0x3beae0be	0.0071679046
26	0xbde81ae0	-0.11333251
27	0xbe71008a	-0.23535362
28	0xbe3e8cf5	-0.18608458
29	0xbd6ea316	-0.058261
30	0x3e2ec79f	0.17068337
31	0xbeeb0820	-0.45904636
32	0x3e14f04e	0.14544794
33	0xbeb423f6	-0.35183686
34	0xbda921d4	-0.08258405
35	0xbbbde804	-0.0057954807
36	0x3de182a9	0.110112496
37	0x3d1c4c04	0.03815843
38	0x3db0f478	0.08640379
39	0xbd9a2cf9	-0.07528109
40	0x3e90482a	0.28180057
41	0xbd883cad	-0.06652198
42	0x3db4d35d	0.08829377
43	0x3e52463a	0.20534602
44	0x3d66fd58	0.05639395
45	0xbe5775e0	-0.2104106
46	0x3de5e830	0.11225927
47	0xbd90b967	-0.07066613
48	0xbdc27c0a	-0.09496315
49	0x3b1be5cc	0.0023788093
50	0xbdc803fd	-0.09766386
51	0xbe4db44f	-0.20088314
52	0x3d7e047c	0.062015995
53	0xbdb9ea1d	-0.09077857
54	0x3e80d6d1	0.25163892
55	0xbe0af3be	-0.13569543
56	0x3e89caed	0.26912633
57	0xbe874e4d	-0.26426926
58	0x3e9b949b	0.30386814
59	0x3e4f6f8f	0.202574
60	0xbe298eae	-0.16558334
61	0xbe54f2c8	-0.20795739
62	0xbd559e66	-0.052153014
63	0x3e25904a	0.16168323
64	0xbdf80d8c	-0.12111959
65	0xbe1a614e	-0.15076181
66	0xbe9cda99	-0.30635527
67	0x3e3c3e1c	0.18383068
68	0x3e27fd74	0.16405278
69	0x3dd511cd	0.10403786
70	0x3d6efbaf	0.058345493
71	0x3e2eb26d	0.17060252
72	0x3db2fd00	0.08739662
73	0x3eca8a34	0.39558566
74	0xbd851532	-0.06498183
75	0xbd366d80	-0.04453802
76	0x3e2aed82	0.16692165
77	0x3f0b6502	0.54451
78	0x3f2f9881	0.6859208
79	0xbd046858	-0.032326072
80	0x3e8ea479	0.27859858
81	0x3e8d4bbc	0.27596843
82	0x3f42a343	0.7603037
83	0x3f24270d	0.64122087
84	0x3d432c13	0.047649454
85	0x3e4272ee	0.18989155
86	0xbdb1b094	-0.08676258
87	0x3e929f79	0.28637293
88	0xbe452230	-0.19251323
89	0xbe1ee1b4	-0.15515786
90	0xbe4d54e0	-0.20051908
91	0x3e36da1e	0.17856643
92	0xbe9095df	-0.28239343
93	0xbc5e1da7	-0.013556874
94	0x3d436987	0.04770806
95	0x3e32bf9c	0.17455906
96	0x3edb55f1	0.42839006
97	0xbe1c10c6	-0.15240774
98	0x3e0432dd	0.12910028
99	0x3d3ead63	0.046552073
100	0xbded5d8d	-0.11590109
101	0xbce40dff	-0.027838705
102	0xbe5e4f03	-0.21709828
103	0xbe8c8719	-0.2744682
104	0xbc4e82e6	-0.012604451
105	0x3ceeefe9	0.029167132
106	0x3db41c16	0.087944195
107	0xbe00c9fe	-0.12577054
108	0x3c9a103c	0.01880657
109	0x3e4c84e6	0.19972572
110	0xbde75a9e	-0.11296581
111	0xbeb62c1c	-0.35580528
112	0xbe03a05d	-0.12854142
113	0x3e274895	0.16336282
114	0x3e04ac2b	0.12956302
115	0xbe9d7a77	-0.30757496
116	0x3e1a3ebf	0.15062998
117	0x3cf4bdbf	0.029875634
118	0xbdae79be	-0.08519314
119	0xbce50026	-0.027954172
120	0x3bd38db7	0.0064561027
121	0xbeea34cd	-0.4574341
122	0x3b4b7d96	0.0031050197
123	0xbe0a93ea	-0.13532987
124	0x3dfd80c4	0.12378076
125	0xbe0c00cf	-0.13672183
126	0xbc21b04e	-0.0098686945
127	0x3e99fbfd	0.30075064
128	0x3e0b7e29	0.13622345
129	0xbd65a821	-0.056068543
130	0xbe27008b	-0.16308801
131	0x3ea21c58	0.3166225
132	0x3ea774dc	0.32706344
133	0x3e15dad5	0.14634259
134	0x3eb3e5db	0.35136303
135	0x3e106bc4	0.1410361
136	0x3e48da82	0.19614604
137	0x3f039628	0.51400995
138	0x3cde6617	0.02714829
139	0x3ea00bbc	0.31258953
140	0x3e9157e7	0.28387377
141	0x3f0ec300	0.55766296
142	0x3f25b6d1	0.6473208
143	0xbe60269a	-0.21889725
144	0xbe0d0286	-0.13770494
145	0x3e02c9c5	0.12772281
146	0x3cc8f674	0.02453158
147	0xbce227d2	-0.027606878
148	0xbe508ba3	-0.20365767
149	0xbc9b1260	-0.01892966
150	0x3c078ef1	0.008273826
151	0x3e512159	0.20422877
152	0x3e8b6b8d	0.27230492
153	0xbded0b66	-0.1157444
154	0x3dd5a233	0.10431328
155	0xbce3dc3a	-0.027814973
156	0x3cdbe473	0.026842332
157	0x3e15fad7	0.14646469
158	0x3e2b42a6	0.16724643
159	0xbe86953f	-0.2628574
160	0x3e05481f	0.13015793
161	0x3dfc7afc	0.12328145
162	0xbdfcb525	-0.12339238
163	0x3e62d85f	0.22152852
164	0x3e5fe165	0.21863325
165	0xbe1ad877	-0.15121637
166	0xbd43f21e	-0.047838323
167	0x3d9c63c9	0.0763622
168	0x3e3d0e03	0.18462376
169	0x3d4b5f6f	0.04965156
170	0xbe177973	-0.14792423
171	0x3e94a42b	0.290315
172	0xbe76684c	-0.24063224
173	0xbdfd4051	-0.12365783
174	0xbeb65ccd	-0.35617676
175	0xbe833932	-0.25629574
176	0xbd690c30	-0.05689639
177	0xbe0a7670	-0.13521743
178	0x3e427191	0.18988635
179	0xbe2132d5	-0.15742047
180	0xbe09fb9d	-0.13474889
181	0x3e54ab08	0.20768368
182	0xbe93b5d8	-0.28849673
183	0xbe716f9f	-0.23577736
184	0xbe670fc0	-0.22564602
185	0xbe226427	-0.15858518
186	0x3df1e905	0.11812023
187	0xbde69d52	-0.11260475
188	0x3d9e5cf0	0.0773257
189	0x3e140686	0.14455613
190	0x3e7321ee	0.23743412
191	0x3e286077	0.16443048
192	0x3d44f9b6	0.048089705
193	0x3c0be556	0.008538565
194	0x3d9f3fcd	0.07775841
195	0x3dbb9620	0.091594934
196	0x3e01f5ff	0.12691496
197	0xbde4d070	-0.11172569
198	0x3ea4c498	0.3218124
199	0x3e872242	0.26393324
200	0x3df7d248	0.12100655
201	0x3ee29004	0.442505
202	0x3e823c7f	0.2543678
203	0x3d8d5bb0	0.06902254
204	0xbdf5e8ca	-0.120072916
205	0x3ea3d6f1	0.31999925
206	0xbe32acc1	-0.17448713
207	0x3e1feead	0.15618391
208	0x3dad66d2	0.08466877
209	0xbe5eec39	-0.217698
210	0x3e274805	0.16336067
211	0xbcec02d0	-0.028809935
212	0x3d2c2b75	0.04203363
213	0xbe38cc7f	-0.18046759
214	0x3e8d9a5a	0.27656823
215	0x3bae6795	0.0053224065
216	0x3dcf75fd	0.10129926
217	0xbd96d48e	-0.0736476
218	0x3e540c7e	0.2070789
219	0xbe7585aa	-0.2397677
220	0x3d3cfd8b	0.046140235
221	0x3dbf4c14	0.093406826
222	0xbf164f15	-0.5871442
223	0x3e061298	0.1309303
224	0x3ea028bd	0.3128108
225	0xbe99a941	-0.30011943
226	0xbdad5bbb	-0.08464762
227	0xbcf84714	-0.03030733
228	0x3ea7160d	0.3263401
229	0xbd2a59d9	-0.04158959
230	0x3dcc31e2	0.09970452
231	0x3dcf042b	0.10108217
232	0xbd513a4f	-0.051080998
233	0x3e1a717c	0.15082353
234	0x3d280f12	0.041029997
235	0xbe1a9e18	-0.1509937
236	0xbdc4b902	-0.096056
237	0xbd7589d1	-0.059945885
238	0x3e075fcb	0.13220136
239	0xbe5edf28	-0.21764815
240	0xbcb62fc6	-0.022239577
241	0x3e62e9ec	0.22159547
242	0xbdc35f0d	-0.09539614
243	0x3ee60760	0.44927502
244	0x3db9950e	0.09061633
245	0xbbd4ff1b	-0.0065001375
246	0xbe3db930	-0.18527675
247	0x3e89de59	0.2692745
248	0xbca5e047	-0.020248545
249	0xbcdfc5f5	-0.027316073
250	0xbe15b9a8	-0.14621603
251	0x3e38ce6f	0.18047498
252	0xbe9b1776	-0.30291337
253	0xbec259ae	-0.37959045
254	0xbea0eb78	-0.31429648
255	0xbe98b7c8	-0.29827714

critic.0.bias f4 [64]
0	0xbd2a1f0a	-0.041533507
1	0x3c333237	0.010937265
2	0x3db152d5	0.08658377
3	0xbdaa6455	-0.08319918
4	0xbd504a47	-0.050852086
5	0xbd63a588	-0.055577785
6	0xbdab7cdd	-0.08373425
7	0x39c4553d	0.0003744754
8	0x3ebe8b2d	0.37215558
9	0x3e0aea42	0.13565925
10	0x3cb6903d	0.022285575
11	0x3cd81926	0.02637918
12	0xbe1fa893	-0.1559165
13	0x3ec5b618	0.3861549
14	0xbcb43e86	-0.02200247
15	0x3e52fe8d	0.20604916
16	0xbdd742de	-0.10510801
17	0x3c8133d6	0.015771788
18	0xbc3946c4	-0.011308376
19	0xbe2ab7c2	-0.1667166
20	0x3d2e4cb4	0.04255362
21	0xbe434cf8	-0.1907233
22	0x3dfb80c6	0.12280421
23	0xbd8d3153	-0.068941735
24	0x3e683f68	0.22680438
25	0xbe8022b6	-0.25026482
26	0xbe15a1f4	-0.14612561
27	0xbe524df5	-0.20537551
28	0x3e8ad381	0.2711449
29	0x3e002331	0.12513424
30	0x3e90fdde	0.28318685
31	0xbd8c2cc1	-0.06844474
32	0x3d9f4a76	0.07777874
33	0xbd920ca5	-0.07131318
34	0xbc9b82b6	-0.018983226
35	0x3deac9e7	0.11464291
36	0xbd0cd301	-0.034380917
37	0xbe04ca70	-0.12967849
38	0xbe79deb3	-0.2440136
39	0xbea64314	-0.32473052
40	0x3df1763b	0.11790129
41	0x3d402318	0.046908468
42	0x3dfb12aa	0.12259419
43	0xbd99161c	-0.0747492
44	0x3df0cfe4	0.11758402
45	0xbe1335d9	-0.1437601
46	0x3eb363ab	0.35036978
47	0x3f097317	0.5369124
48	0x3e3393d9	0.17536868
49	0xbc1e5dc3	-0.009665909
50	0xbe7c4ede	-0.2463946
51	0x3db54c1e	0.08852409
52	0xbb6ef107	-0.0036459581
53	0x3e41029b	0.1884865
54	0xbd835754	-0.06413141
55	0x3cf2f565	0.029658029
56	0x3dbe4de8	0.09292203
57	0x3d873344	0.06601575
58	0xbc70328d	-0.01466049
59	0x3df4b81a	0.11949177
60	0x3e11317a	0.1417903
61	0x3cf6909d	0.030098254
62	0x3e93b176	0.2884633
63	0x3db5adf1	0.08871067

critic.2.weight f4 [64, 64]
0	0xbead32c4	-0.33827794
1	0x3e743f4f	0.23852275
2	0xbd85388d	-0.06504927
3	0x3ea1de05	0.316147
4	0xbdd827b0	-0.10554445
5	0xbe17b578	-0.14815319
6	0x3ebbf1e7	0.36707994
7	0xbe062716	-0.13100848
8	0x3e23e5ad	0.16005583
9	0xbe01de81	-0.12682535
10	0xbde70f9f	-0.11282276
11	0xbd386d15	-0.045025904
12	0xbe0e357f	-0.13887595
13	0x3e70e023	0.23523001
14	0xbeb38034	-0.3505875
15	0x3e33ba7d	0.17551608
16	0xbe7419f3	-0.23838024
17	0xbe233164	-0.1593681
18	0xbeaeba0e	-0.34126323
19	0xbec10b73	-0.37704048
20	0x3d41383a	0.047172762
21	0xbea64bf9	-0.32479838
22	0x3e16a248	0.14710343
23	0xbe444cf2	-0.19169977
24	0x3f06fedb	0.5273263
25	0x3e0545bc	0.13014883
26	0x3dc15510	0.094400525
27	0xbd934b48	-0.07192093
28	0x3d2100a0	0.039307237
29	0xbe0ab3c9	-0.13545145
30	0x3e9755e0	0.29557705
31	0x3e2995ed	0.16561098
32	0xbdb8aa94	-0.0901691
33	0xbe5f8f58	-0.21832025
34	0x3e5eb26d	0.21747752
35	0x3e1bd6bb	0.15218632
36	0x3dc04699	0.093884654
37	0x3dfcae3b	0.12337919
38	0xbe3942f1	-0.18091942
39	0xbe16d372	-0.14729097
40	0x3d549bcb	0.05190639
41	0x3e5b402f	0.21411203
42	0x3e6848db	0.22684042
43	0xbe99ebfe	-0.3006286
44	0xbe565f2a	-0.2093474
45	0xbe251591	-0.16121508
46	0xbca88c55	-0.020574728
47	0x3e9c1851	0.30487302
48	0x3e82ba8c	0.2553295
49	0xbe900ecc	-0.2813629
50	0x3d7b9d9c	0.061429605
51	0xbe0412f2	-0.12897852
52	0x3d65db91	0.056117598
53	0x3e5b10d5	0.2139314
54	0x3e103019	0.14080848
55	0x3e07f796	0.1327804
56	0x3ecc8574	0.39945567
57	0x3e0a551c	0.13509029
58	0xbe1a947d	-0.15095706
59	0x3ea10f70	0.3145709
60	0x3e14d0a4	0.14532715
61	0xbeac4606	-0.33647174
62	0xbe24cf6b	-0.16094749
63	0x3dfd9674	0.12382212
64	0x3d71f521	0.059071664
65	0xbe5d10aa	-0.21588388
66	0xbdabb9a2	-0.08385016
67	0x3e62ca1b	0.2214741
68	0x3d02a112	0.03189189
69	0x3ee8545a	0.45376855
70	0xbcb5de3b	-0.022200694
71	0xbcc583c4	-0.024110682
72	0xbdff0fe1	-0.124542005
73	0xbe9f8585	-0.31156555
74	0x3f1d827b	0.6152722
75	0xbe28cc93	-0.16484289
76	0xbd0a728a	-0.03380064
77	0xbe6d4278	-0.23169887
78	0x3eb2e1fd	0.3493804
79	0xbdb0a337	-0.08624881
80	0x3ecdcb73	0.40194282
81	0x3d968298	0.073491275
82	0x3d7444c1	0.05963588
83	0x3da9d477	0.082924776
84	0x3e4c0ec9	0.19927515
85	0xbda5a19c	-0.08087465
86	0xbe720248	-0.23633683
87	0x3cd72836	0.026264291
88	0xbc974a38	-0.018468007
89	0x3e5081f3	0.20362072
90	0x3cd64b3c	0.026158921
91	0x3db7bf83	0.08972075
92	0xbe779f15	-0.24181779
93	0xbc16977f	-0.009191393
94	0xbea22913	-0.31671962
95	0x3f074790	0.5284357
96	0x3db7161b	0.08939763
97	0x3e9c3a47	0.30513212
98	0x3dd27b31	0.10277403
99	0xbd63841b	-0.055545907
100	0x3c5945ab	0.013261239
101	0x3e958858	0.29205585
102	0x3eea0da4	0.45713532
103	0x3c1a1712	0.009404914
104	0xbcfd9ecf	-0.030959515
105	0x3e2ff5e5	0.17183645
106	0xbe04930d	-0.1294672
107	0xbc8fca46	-0.017552506
108	0x3d7397e9	0.059471045
109	0x3ecc9ba6	0.399625
110	0xbd9b4287	-0.075810485
111	0xbecebde5	-0.40379253
112	0x3d34b27d	0.044115532
113	0x3cb2b68c	0.02181556
114	0x3e8e9de7	0.27854845
115	0x3e4859ed	0.19565554
116	0xbd6b00fa	-0.05737398
117	0x3e470920	0.19437075
118	0xbd1f01df	-0.038820144
119	0x3cfe89ec	0.031071626
120	0xbe0a080b	-0.1347963
121	0xbee159b2	-0.44013745
122	0x3e100fba	0.14068499
123	0xbe4d6ef2	-0.20061854
124	0xbe83aeb8	-0.25719237
125	0x3edacece	0.42735904
126	0xbd19bc94	-0.037533358
127	0xbdb6a050	-0.08917296
128	0x3deadd1e	0.11467956
129	0xbdd70996	-0.10499875
130	0x3db75848	0.08952385
131	0x3de196f9	0.11015124
132	0xbd2cdc98	-0.042202562
133	0xbde7b101	-0.11313058
134	0xbdf3bae1	-0.11900879
135	0x3e0d1a3e	0.13779542
136	0x3d75d5e9	0.060018454
137	0xbe11b5fa	-0.14229575
138	0xbdd91298	-0.105992496
139	0xbe1e6e2b	-0.15471713
140	0xbd821e43	-0.06353428
141	0x3e941963	0.2892562
142	0xbc52a096	-0.0128556695
143	0x3e7ffe75	0.24999411
144	0x3d38a707	0.045081165
145	0xbe41d9c3	-0.18930726
146	0x3c70a0f5	0.014686813
147	0x3dd845fd	0.10560224
148	0x3c1d5952	0.009603815
149	0xbe392f15	-0.18084367
150	0x3e51c763	0.20486216
151	0x3e046857	0.12930427
152	0x3e299e6b	0.16564338
153	0xbe31adff	-0.1735153
154	0xbf12b78a	-0.5731131
155	0xbee36271	-0.44411042
156	0xbc064a3f	-0.008196413
157	0xbd34ca0f	-0.04413801
158	0xbe6ca552	-0.2310994
159	0x3dd893e1	0.10575081
160	0xbe84f441	-0.259676
161	0xbe9e51f0	-0.30921888
162	0xbe4c932c	-0.19978017
163	0x3ef925f4	0.48661768
164	0xbc9797f2	-0.01850507
165	0xbdd64452	-0.1046225
166	0xbcf5d439	-0.030008422
167	0xbe4892e4	-0.19587284
168	0x3d453aa6	0.048151635
169	0xbdaf02a0	-0.085454226
170	0x3c705de9	0.014670827
171	0xbe8864cd	-0.26639405
172	0x3ebe3434	0.37149203
173	0xbed7a89b	-0.42120823
174	0x3ea6e9f9	0.32600382
175	0xbd81bc4e	-0.063347444
176	0xbdd75dfc	-0.10515973
177	0xbd8e456e	-0.069468364
178	0xbe2e5d29	-0.17027725
179	0xbe1bfe50	-0.15233731
180	0x3ea73c07	0.32662985
181	0x3e250947	0.1611682
182	0xbe390f1f	-0.18072174
183	0x3e23832a	0.15968004
184	0x3e3460e3	0.17615084
185	0x3d8b2fe3	0.06796243
186	0x3e557350	0.2084477
187	0x3e366cfb	0.1781501
188	0x3e4fcdea	0.20293394
189	0x3e1ec2ab	0.15503947
190	0x3e0e5872	0.13900927
191	0xbe4618d4	-0.19345409
192	0x3dfb2419	0.122627445
193	0x3d7c4000	0.061584473
194	0x3ba6ce03	0.0050904765
195	0x3d98979e	0.07450794
196	0x3e61eac8	0.22062218
197	0x3d255fc1	0.04037452
198	0xbd93f131	-0.07223738
199	0x3c0e1d8c	0.008674037
200	0xbd9a607f	-0.075379364
201	0xbd88c7ff	-0.06678771
202	0x3eaafff8	0.33398414
203	0xbd5c9990	-0.053857386
204	0xbd923d57	-0.07140606
205	0xbe28e55b	-0.16493742
206	0x3e3fe0a1	0.18738033
207	0xbf10d092	-0.56568253
208	0x3c197a3c	0.009367522
209	0xbe55de0e	-0.20885488
210	0xbde980c2	-0.11401512
211	0x3ed4b9b9	0.41547945
212	0x3dbf56a8	0.093427
213	0x3ca59d3a	0.020216573
214	0x3e86a358	0.26296496
215	0x3def034a	0.11670549
216	0xbeb34002	-0.35009772
217	0x3e8cf857	0.27533218
218	0x3e0d3869	0.1379105
219	0xbe86aff5	-0.2630612
220	0xbec97752	-0.39348847
221	0x3c02ef53	0.00799163
222	0xbe491423	-0.19636588
223	0x3e40768f	0.18795227
224	0x3ed27797	0.41106865
225	0x3bba0472	0.0056767995
226	0xbec44357	-0.38332626
227	0xbe955c53	-0.29172
228	0x3e0263fb	0.12733452
229	0x3e430647	0.19045363
230	0x3e86536a	0.26235515
231	0x3e0cd6ef	0.13753866
232	0xbddf69ee	-0.10908876
233	0xbc866af9	-0.01640843
234	0x3e94b68c	0.29045522
235	0xbf05a5b4	-0.5220597
236	0x3ec4bcfc	0.38425434
237	0x3e20a498	0.15687788
238	0xbea93859	-0.33050802
239	0xbdafbd67	-0.085810475
240	0xbd91c9b5	-0.07118551
241	0x3db7d579	0.089762636
242	0xbdea4bab	-0.11440214
243	0x3e4db4cb	0.20088498
244	0xbe0bad5f	-0.13640355
245	0x3cdff90c	0.027340434
246	0x3e1908bc	0.14944738
247	0xbe9c11c7	-0.30482313
248	0xbe424cbb	-0.18974583
249	0x3d82c287	0.063847594
250	0x3f1fe2f9	0.6245571
251	0xbe41a54b	-0.1891071
252	0xbe24da74	-0.16098958
253	0x3ddfc8a1	0.10926939
254	0xbcb39901	-0.021923544
255	0xbb706bc3	-0.0036685325

critic.2.bias f4 [64]
0	0x3df07ab0	0.11742151
1	0xbdefa69e	-0.117017016
2	0x3dc0556b	0.09391292
3	0xbdc36151	-0.09540046
4	0x3e03f09e	0.12884757
5	0xbda74a35	-0.08168451
6	0xbe0f73ca	-0.14009014
7	0x3d988756	0.07447688
8	0x3d136a37	0.035989966
9	0xbdff9376	-0.12479298
10	0x3d84f939	0.06492848
11	0xbd93f4d9	-0.07224435
12	0x3ded460c	0.11585626
13	0xbdf7d9ed	-0.12102113
14	0xbdc951de	-0.09830068
15	0xbdcde10f	-0.10052692
16	0x3ddf12ea	0.108922794
17	0x3de4e02a	0.111755684
18	0xbde82b6a	-0.113364056
19	0x3dd99e31	0.10625876
20	0x3ca539d9	0.020169185
21	0xbcc451dd	-0.023964817
22	0xbe036ea6	-0.12835178
23	0xbd7f6de9	-0.062360678
24	0x3d8fe942	0.07026912
25	0x3daddad3	0.08489003
26	0xbe302a07	-0.17203532
27	0x3df30c7b	0.11867615
28	0x3e138c1d	0.14408918
29	0xbdb596b9	-0.08866639
30	0xbce535b7	-0.027979715
31	0x3dccbed0	0.09997332
32	0xbda45216	-0.08023469
33	0xbe082738	-0.13296211
34	0xbe126a62	-0.14298394
35	0xbdf7403f	-0.12072801
36	0xbde6e2ca	-0.11273725
37	0xbdd0e8d3	-0.10200658
38	0xbdc49b4a	-0.095999315
39	0x3e033624	0.12813622
40	0xbd85c230	-0.06531179
41	0xbe03fb0f	-0.1288874
42	0x3bdd2bcb	0.0067496053
43	0xbd38720e	-0.045030646
44	0xbdffbc80	-0.124871254
45	0xbde8a6c2	-0.113599315
46	0x3da6b465	0.08139876
47	0xbd476f61	-0.048690204
48	0x3dbaa42e	0.09113346
49	0x3d8a354f	0.06748449
50	0xbdca7917	-0.09886377
51	0xbdb99e12	-0.09063353
52	0x3bdbb0fb	0.0067044473
53	0xbda5a226	-0.08087568
54	0xbd378037	-0.04480001
55	0xbd94c68c	-0.07264432
56	0xbdd96941	-0.10615779
57	0x3e0c9884	0.13730055
58	0x3e2fa9dd	0.17154641
59	0x3e018aa5	0.12650545
60	0xbdb86ef7	-0.0900554
61	0xbdbf569e	-0.09342693
62	0x3d53a858	0.051674217
63	0x3dc4e3c2	0.09613754

critic.4.weight f4 [1, 64]
0	0xbf9afdb2	-1.2108672
1	0x3fa07048	1.2534266
2	0x3f9f53bc	1.2447429
3	0x3f807d81	1.0038301
4	0xbf96b26d	-1.1773201
5	0xbfc66fad	-1.5502831
6	0x3f8a488d	1.0803391
7	0xbf8c0773	-1.0939773
8	0x3fad001d	1.351566
9	0xbfa7b9b8	-1.3103552
10	0xbf95fc25	-1.1717573
11	0x3f99443b	1.1973947
12	0xbf9b4433	-1.2130188
13	0x3f90173c	1.125709
14	0xbfa660b0	-1.2998257
15	0x3f85be88	1.044877
16	0x3f980bff	1.1878661
17	0xbf88ec8c	-1.0697188
18	0x3f90b2e9	1.1304599
19	0x3f8bbaff	1.0916442
20	0xbf9ca213	-1.2236961
21	0xbf9ab11d	-1.2085301
22	0x3f9819d9	1.1882888
23	0x3f95f4e8	1.1715364
24	0xbf93deef	-1.1552409
25	0x3fc94c58	1.5726423
26	0xbf9975cd	-1.1989075
27	0xbfaa8137	-1.3320683
28	0x3fadbb4c	1.3572783
29	0x3f8adb8c	1.084825
30	0x3f814578	1.0099325
31	0x3fbba6ae	1.4660242
32	0xbf8d9236	-1.1060245
33	0xbf98e5bf	-1.1945113
34	0x3f87bdc2	1.0604784
35	0x3faadaa6	1.3347976
36	0x3f955f83	1.1669773
37	0xbfbaa9cc	-1.4583068
38	0xbf9de909	-1.2336742
39	0xbf8ff304	-1.1246037
40	0x3f9e97f0	1.2390118
41	0x3f84b2ad	1.0367028
42	0xbf84df18	-1.0380583
43	0xbf90c68c	-1.1310592
44	0x3f8df645	1.109078
45	0x3f9cf498	1.2262144
46	0xbf90c5a2	-1.1310313
47	0xbf9482fd	-1.1602474
48	0xbf8fc626	-1.1232345
49	0xbf868643	-1.0509723
50	0xbf9259c6	-1.1433647
51	0x3fa1ed18	1.265048
52	0xbf907b6c	-1.1287665
53	0xbf94c52b	-1.1622671
54	0xbf91a02b	-1.1377004
55	0x3f9cef77	1.2260579
56	0xbf966081	-1.1748201
57	0x3fae774d	1.3630158
58	0xbf854ddc	-1.0414386
59	0x3f8f7fad	1.1210839
60	0x3f88a8db	1.0676531
61	0x3f968fe7	1.1762666
62	0x3f8ca323	1.0987285
63	0x3fccf256	1.6011455

actor.0.weight f4 [64, 59]
0	0x3da98fdf	0.08279394
1	0xbe445a87	-0.19175158
2	0xbe024dce	-0.12724993
3	0xbe3eee4f	-0.18645595
4	0xbeadd561	-0.33951858
5	0x3ed631c9	0.41834858
6	0xbe5e3db1	-0.21703221
7	0xbe5b59cb	-0.21420972
8	0xbe3e7762	-0.18600228
9	0xbce1dfbe	-0.027572509
10	0x3e8b578a	0.27215225
11	0x3e96a862	0.2942534
12	0x3e3ce638	0.18447196
13	0xbd5a5cdd	-0.053311218
14	0xbe67ee94	-0.22649604
15	0x3d85deff	0.06536674
16	0x3e27797e	0.1635494
17	0xbe00caab	-0.12577312
18	0xbe005bfc	-0.12535089
19	0x3d71df5a	0.059050895
20	0x3e3cd731	0.18441464
21	0x3d053a2c	0.03252618
22	0x3f247207	0.6423649
23	0x3b5b28aa	0.0033440986
24	0xbded6300	-0.115911484
25	0x3efdf418	0.4960029
26	0x3ec62af3	0.38704643
27	0xbe6568b0	-0.22403216
28	0x3e4ae4b7	0.1981381
29	0x3f0410bb	0.5158803
30	0x3d06428e	0.032778315
31	0x3f507fee	0.81445205
32	0xbec85136	-0.3912446
33	0xbe89e7f0	-0.26934767
34	0x3db6dd95	0.08928982
35	0x3dd055cc	0.101726145
36	0x3ea577ae	0.3231787
37	0xbe945396	-0.2897002
38	0xbccd642b	-0.025072178
39	0xbe3277e9	-0.17428555
40	0xbe0217d3	-0.127044
41	0xbcfabc97	-0.030607505
42	0x3b84c426	0.004051703
43	0x3e2d4155	0.16919453
44	0x3e3d0b60	0.1846137
45	0x3dc16524	0.09443119
46	0xbcafc36d	-0.021455491
47	0x3e5d00fe	0.2158241
48	0x3d30750d	0.04308038
49	0x3b354664	0.0027660364
50	0x3de03abc	0.10948703
51	0xbe443820	-0.19162035
52	0x3b2d61e6	0.0026456057
53	0x3ca51fd1	0.020156773
54	0x3e9725ec	0.2952112
55	0x3d2e6d9b	0.042584997
56	0xbb07838f	-0.002067778
57	0xbdc96785	-0.09834198
58	0xbcabce06	-0.020972263
59	0xbdef7f41	-0.11694194
60	0xbdc03ab4	-0.09386197
61	0xbcd127bd	-0.025531644
62	0xbdbefd4a	-0.09325655
63	0x3db2ab1f	0.08724045
64	0xbd3720ca	-0.044709004
65	0x3d5dbc47	0.054134633
66	0xbdb73514	-0.08945671
67	0xbe214b13	-0.15751295
68	0xbd3ecd94	-0.046582773
69	0x3e8ead1a	0.2786644
70	0x3e55827c	0.20850557
71	0xbcf9ab62	-0.03047723
72	0xbe124886	-0.14285478
73	0xbdd34bd2	-0.10317196
74	0x3f1a3862	0.60242283
75	0x3e9091cc	0.28236234
76	0x3e46c0a5	0.19409426
77	0x3bce156f	0.006289176
78	0x3d475882	0.048668392
79	0x3e512593	0.2042449
80	0x3e7a716a	0.24457327
81	0xbe61759c	-0.2201752
82	0x3d4c0988	0.049813777
83	0x3b42f078	0.0029745381
84	0x3ed78238	0.42091537
85	0x3f01ea6f	0.5074834
86	0xbe71dc7c	-0.23619264
87	0xbe6d6fe0	-0.23187208
88	0xbe39ed4d	-0.1815693
89	0xbe2467c1	-0.16055204
90	0x3f14da77	0.5814585
91	0xbeee8b09	-0.4659045
92	0xbd924c0e	-0.071434125
93	0x3d91bde1	0.07116295
94	0x3e948f8b	0.29015765
95	0xbd9e17c3	-0.07719376
96	0xbe2a36a2	-0.16622403
97	0x3b5ccd01	0.0033691528
98	0x3e7fd073	0.24981861
99	0xbe64146d	-0.22273417
100	0x3e2632de	0.16230342
101	0xbe3b184f	-0.18270992
102	0xbe198cd1	-0.14995123
103	0xbde017f1	-0.109420665
104	0xbe8297c0	-0.255064
105	0xbe77801c	-0.24169964
106	0x3c22246d	0.00989638
107	0xbe62f072	-0.22162035
108	0x3d0f0abe	0.034922354
109	0x3c0b4ced	0.008502227
110	0xbe13f739	-0.14449777
111	0x3e8a4ced	0.27011815
112	0x3e4047d6	0.18777403
113	0xbdb34885	-0.087540664
114	0xbd7b78d6	-0.061394535
115	0xbbe0b617	-0.0068576443
116	0xbe82a970	-0.25519896
117	0x3defbfb4	0.11706486
118	0x3e401de2	0.187614
119	0xbe2d6737	-0.16933905
120	0xbdc2a751	-0.09504569
121	0xbe3fbf10	-0.18725228
122	0xbd93ea06	-0.07222371
123	0x3eebce22	0.46055704
124	0x3f06e89d	0.5269869
125	0xbe3c5b4b	-0.183942
126	0xbe146160	-0.1449027
127	0xbdeb3e46	-0.11486487
128	0x3ebc599f	0.36787125
129	0x3e61593d	0.22006698
130	0xbd474759	-0.048652027
131	0x3e452d42	0.19255546
132	0xbdf00bb0	-0.11720979
133	0x3f10e8e5	0.5660537
134	0xbe98d282	-0.29848105
135	0x3ceeb33b	0.029138198
136	0x3e0f86bc	0.14016241
137	0xbda22f38	-0.079191625
138	0x3de11fa6	0.109923646
139	0xbe5ccf98	-0.21563566
140	0x3ebe8d88	0.37217355
141	0xbdf1e7bb	-0.11811777
142	0xbdb19ef7	-0.08672898
143	0x3f1c6654	0.6109364
144	0x3e392ead	0.18084212
145	0xbb560523	-0.003265687
146	0xbd813338	-0.06308597
147	0x3efb7f19	0.49120405
148	0xbd887a29	-0.06663925
149	0x3edff997	0.4374511
150	0x3c36376f	0.011121615
151	0xbe890605	-0.26762405
152	0x3ce8c45b	0.028413942
153	0x3d1fed51	0.039044682
154	0xbd313ab0	-0.04326886
155	0x3e5bde7a	0.21471587
156	0x3d62d9bd	0.055383433
157	0x3efb39bf	0.49067494
158	0x3d005218	0.03132829
159	0xbd60e97c	-0.054910168
160	0x3dff4388	0.124640524
161	0x3e628f3a	0.22124949
162	0x3ea51669	0.3224366
163	0x3eaa71d2	0.33289963
164	0xbbda49e4	-0.0066616405
165	0x3dd8e7e7	0.10591107
166	0xbdfaafe6	-0.12240581
167	0xbe6c63d5	-0.23084958
168	0xbe36c528	-0.17848647
169	0x3e2858c5	0.16440113
170	0x3d676b11	0.05649859
171	0x3e6947d3	0.22781305
172	0x3dc24105	0.09485058
173	0x3e5b0c67	0.2139145
174	0x3e12660c	0.1429674
175	0xbda1caeb	-0.07900032
176	0x3ded0ba6	0.115744874
177	0xbe804ea9	-0.25060013
178	0x3d11c2a3	0.03558601
179	0x3dc0eed5	0.094205536
180	0xbe708075	-0.23486502
181	0x3d95c2d6	0.07312553
182	0x3cf8ccaa	0.030371029
183	0x3d876f6b	0.06613048
184	0x3c329401	0.010899545
185	0xbd090b37	-0.03345796
186	0xbe133871	-0.14377
187	0xbddb2544	-0.10700467
188	0x3e7d2d40	0.24724293
189	0x3e2dc9e5	0.16971548
190	0x3f027dc1	0.50973135
191	0xbe2e05cb	-0.16994397
192	0x3ebc1a4e	0.3673882
193	0xbdff8821	-0.124771364
194	0xbddd798c	-0.10814199
195	0x3e0b19fb	0.1358413
196	0xbb5d66aa	-0.0033783116
197	0x3e8d3af9	0.27584055
198	0x3ed543f5	0.4165341
199	0x3f079ccd	0.52973634
200	0xbdffbf24	-0.12487629
201	0x3e162526	0.14662609
202	0x3ec622cf	0.38698432
203	0x3f03ab01	0.51432806
204	0xbe2bf596	-0.16792902
205	0x3d7368e2	0.059426196
206	0x3eb73aae	0.35786957
207	0xbe43c360	-0.19117498
208	0x3ec9c451	0.3940759
209	0x3dcd0d4f	0.10012304
210	0x3def194d	0.116747476
211	0xbc3f45e9	-0.011674383
212	0x3bc1daaa	0.0059159594
213	0x3bd1e8cd	0.006405926
214	0x3e1f1fd0	0.1553948
215	0x3e0f09c9	0.13968576
216	0x3d810da6	0.06301431
217	0xbe60a6f2	-0.21938685
218	0x3e0d85ac	0.13820523
219	0xbea8898b	-0.32917437
220	0x3d04f82c	0.032463238
221	0x3d1c4692	0.03815324
222	0x3e045eb2	0.12926748
223	0xbdb5fac0	-0.088857174
224	0xbcff5aa5	-0.031171152
225	0xbd118a2a	-0.035532154
226	0x3e356660	0.17714834
227	0x3e0b39ca	0.13596264
228	0xbe67ea42	-0.22647956
229	0xbe9d7c1c	-0.3075875
230	0xbc89641c	-0.016771369
231	0xbd64c984	-0.055856243
232	0xbcfb2d54	-0.030661263
233	0xbe091ecd	-0.13390656
234	0xbde7463b	-0.11292692
235	0xbea68468	-0.32522893
236	0xbe04f93b	-0.12985699
237	0x3f0157fe	0.5052489
238	0xbcc2d3bf	-0.023782609
239	0x3e992426	0.29910392
240	0xbc4083e9	-0.0117502
241	0xbea0a446	-0.3137533
242	0xbe5be0fa	-0.2147254
243	0x3f0d3a76	0.5516733
244	0x3e530553	0.206075
245	0x3c9899b3	0.018627977
246	0xbe917b96	-0.284146
247	0xbf0473c8	-0.5173917
248	0xbe0c15e8	-0.13680232
249	0xbe2c25f7	-0.16811357
250	0x3e2559e5	0.16147573
251	0xbeb3fd19	-0.35154036
252	0xbdbe63a6	-0.0929635
253	0x3da6070d	0.081068136
254	0x3da4ac15	0.080406345
255	0xbdf29b7c	-0.118460625

actor.0.bias f4 [64]
0	0x3e0e9511	0.13924052
1	0x3d108f44	0.03529288
2	0x3e272b9a	0.16325226
3	0xbb02c634	-0.0019954564
4	0x3e8d2a3d	0.27571288
5	0x3e35a301	0.17737962
6	0x3e974690	0.29546022
7	0xbb91898e	-0.0044414466
8	0xbcbf60be	-0.02336156
9	0x3e33a0a6	0.17541751
10	0x3d59c443	0.053165685
11	0x3e1d4b9f	0.15360878
12	0x3eacc472	0.33743626
13	0xbdaff33d	-0.08591316
14	0x3e58c25f	0.21167897
15	0x3dfb059d	0.1225693
16	0x3beb1eec	0.007175317
17	0x3cd07388	0.025445715
18	0x3ee06fd2	0.43835312
19	0x3c5f3397	0.01362314
20	0x3e2232c5	0.1583968
21	0x3e256c2d	0.16154547
22	0xbdfe85a1	-0.124278314
23	0x3e806074	0.25073588
24	0xbda204b0	-0.0791105
25	0x3d9bbb24	0.076040536
26	0x3e021986	0.12705049
27	0x3e5449bc	0.20731252
28	0x3d6a1a11	0.057153765
29	0x3dbe4f53	0.09292474
30	0x3dd42f02	0.103605285
31	0x3d2226d0	0.039587796
32	0xbd01149a	-0.031513788
33	0xbd94ce24	-0.07265881
34	0x3d20cf17	0.039259996
35	0x3eb50ac5	0.3535978
36	0x3e22771f	0.15865754
37	0x3dde6954	0.108599335
38	0x3de0b835	0.10972635
39	0x39100197	0.00013733502
40	0x3e111a2d	0.14170142
41	0x3d5a8ce1	0.05335701
42	0xbaf95131	-0.0019021389
43	0xbd0f0703	-0.034918796
44	0xbd56e2af	-0.052462276
45	0x3e73dfd4	0.23815852
46	0x3dc0c063	0.09411695
47	0x3dababe5	0.08382396
48	0x3e089073	0.13336353
49	0xbd4aa3e3	-0.0494727
50	0x3e5dfceb	0.21678512
51	0x3b43e741	0.0029892477
52	0x3cd600d6	0.026123445
53	0x3e43b9c8	0.19113839
54	0x3e8a1e1c	0.26976097
55	0x3e7efcf5	0.24901183
56	0xbd3cfbaf	-0.04613846
57	0x3c1706c3	0.009217921
58	0x3b58ec15	0.00330997
59	0x3e4592b6	0.19294247
60	0x3e92908d	0.28625908
61	0x3e55a3a5	0.20863207
62	0x3dffb4cf	0.124856584
63	0x3da1e187	0.07904344

actor.2.weight f4 [3, 64]
0	0x3f0b9383	0.5452196
1	0xbdd16bd4	-0.10225645
2	0x3ec92c7a	0.39291745
3	0x3e341f5c	0.17590088
4	0xbf07ac08	-0.52996874
5	0x3ec66ccc	0.3875488
6	0x3f186e97	0.59543747
7	0xbe586040	-0.21130466
8	0xbece8250	-0.40333796
9	0x3f55691e	0.8336352
10	0x3e80e68d	0.25175896
11	0x3f391dc6	0.72311056
12	0x3e99483f	0.29937932
13	0xbf2e615d	-0.68117315
14	0x3df0d5f8	0.11759561
15	0xbf533c90	-0.82514286
16	0xbdb1d55f	-0.086832754
17	0xbeef775a	-0.46770746
18	0x3d817700	0.063215256
19	0xbe866b33	-0.26253662
20	0x3f29470a	0.6612402
21	0x3f67d73d	0.905628
22	0xbeac5445	-0.33658043
23	0x3e515035	0.20440753
24	0xbe8e659f	-0.27811906
25	0xbd61c0ed	-0.05511563
26	0x3e9890ce	0.29797977
27	0x3f22002e	0.63281524
28	0xbf3fb715	-0.74888736
29	0xbf46322d	-0.7742031
30	0x3e942ea6	0.2894184
31	0xbf313894	-0.69226956
32	0xbecb716a	-0.39734966
33	0xbe8e6ab1	-0.27815774
34	0xbf30bb52	-0.6903583
35	0x3d9ccf15	0.07656685
36	0x3ea315ef	0.31852672
37	0x3f1021b0	0.56301403
38	0x3f0784ae	0.5293683
39	0x3e00c29a	0.12574235
40	0xbdfdfe07	-0.124019675
41	0xbf30afef	-0.69018453
42	0xbf11e284	-0.5698626
43	0xbe8a3320	-0.2699213
44	0xbed6c572	-0.41947514
45	0x3f073c09	0.5282598
46	0x3f298ec6	0.6623348
47	0x3eb73e39	0.3578966
48	0xbea7580b	-0.3268436
49	0xbc148f77	-0.009067408
50	0xbf3e2fa0	-0.7429142
51	0x3ead9f58	0.33910632
52	0xbf295aec	-0.6615436
53	0x3d292fb8	0.041305274
54	0xbedd8f64	-0.4327346
55	0x3e538ccb	0.20659177
56	0x3d078aff	0.03309154
57	0x3df73ff4	0.12072745
58	0xbe90560d	-0.28190652
59	0xbd6d828f	-0.05798584
60	0xbebbda8c	-0.36690176
61	0x3dea5b4c	0.11443195
62	0xbf8bf34d	-1.0933625
63	0x3da0004f	0.07812559
64	0x3f07c1a5	0.53029853
65	0x3e99f815	0.30072084
66	0x3e1fb0d0	0.15594792
67	0x3e3efb95	0.18650658
68	0xbf14f181	-0.58181006
69	0x3ef8a9c5	0.48567024
70	0xbf28e85d	-0.6597956
71	0x3f3cd5fd	0.7376402
72	0x3f141bf9	0.5785518
73	0xbf02f0b9	-0.51148564
74	0xbdefb365	-0.11704139
75	0xbf1081d1	-0.56448084
76	0xbf8dbd36	-1.1073368
77	0x3ed31ef7	0.41234562
78	0xbec4fefd	-0.3847579
79	0x3f151798	0.58239126
80	0x3ed8c2d6	0.42336148
81	0x3f4ba9fd	0.79556257
82	0xbf60db57	-0.87834686
83	0x3f4c3995	0.79775363
84	0xbe1e580c	-0.15463275
85	0xbeb85310	-0.36000872
86	0x3f21798c	0.6307609
87	0xbe85a6e9	-0.26103905
88	0x3e84a136	0.25904244
89	0xbea2cfd8	-0.31799197
90	0xbe9c9b75	-0.30587354
91	0x3d8e543c	0.0694966
92	0x3f948036	1.1601627
93	0x3ca1f848	0.01977171
94	0x3e939fbd	0.28832808
95	0x3f1de542	0.61677945
96	0x3ed5bbe8	0.41744924
97	0x3da72da7	0.08163004
98	0x3f33dad8	0.70255804
99	0xbf85f814	-1.0466332
100	0xbed03ebb	-0.4067286
101	0xbe3a2f78	-0.1818217
102	0xbf187dab	-0.59566754
103	0x3e4ee557	0.20204674
104	0x3eb7786e	0.35834068
105	0x3ef45473	0.4772068
106	0x3ec55277	0.38539478
107	0x3eec9b03	0.46212015
108	0x3db4afb2	0.08822574
109	0xbf4694a7	-0.77570575
110	0xbe986c82	-0.29770285
111	0xbeb584d0	-0.3545289
112	0x3f0b85ba	0.54500926
113	0x3d69786f	0.05699962
114	0x3f14f431	0.58185107
115	0x3e6a6bc4	0.22892672
116	0x3f2e32be	0.68046176
117	0xbf0134f1	-0.5047141
118	0xbf192dc8	-0.5983548
119	0xbf2a7248	-0.6658063
120	0x3ee9d5e0	0.45670986
121	0x3e30ecdc	0.17277855
122	0x3e158908	0.14603055
123	0xbeaa1d9e	-0.3322572
124	0xbf5d4a37	-0.8644137
125	0xbebf804c	-0.3740257
126	0x3f48c476	0.78424776
127	0x3eeb35f4	0.459396
128	0xbf415e6e	-0.75534713
129	0xbf330d1a	-0.69941866
130	0xbf5273df	-0.82208055
131	0xbf497657	-0.786962
132	0x3f2962a7	0.66166157
133	0xbef9127b	-0.48646912
134	0xbea91c77	-0.3302953
135	0xbf10128b	-0.56278294
136	0xbe451e14	-0.19249755
137	0xbee2e670	-0.44316435
138	0xbf081590	-0.531579
139	0xbebe30d4	-0.37146628
140	0x3e8bfee6	0.2734291
141	0x3df64c09	0.12026221
142	0x3f36a493	0.7134487
143	0xbdd41ade	-0.10356687
144	0xbf169a40	-0.58829117
145	0x3ebc81a2	0.36817652
146	0x3f45b02b	0.77221936
147	0xbf3f7e16	-0.74801767
148	0xbf12a85c	-0.57288146
149	0xbf16bfb3	-0.5888626
150	0xbea596ea	-0.323417
151	0x3ec0f869	0.37689522
152	0x3d888556	0.06666057
153	0x3f1893be	0.59600437
154	0xbe48ba13	-0.19602232
155	0xbf25253b	-0.64509934
156	0xbebb8529	-0.3662503
157	0x3f2ab279	0.6667858
158	0xbf06c7a0	-0.52648354
159	0x3d1ab4fb	0.037770253
160	0x3dfefca9	0.12450535
161	0x3cc2e594	0.023791112
162	0x3ddc2f79	0.10751242
163	0xbd6f4d2e	-0.058423214
164	0xbe10bb43	-0.14133935
165	0xbf7c862a	-0.9864222
166	0xbec154ef	-0.37760112
167	0xbee30b3a	-0.44344503
168	0xbf70228b	-0.9380271
169	0x3e2af194	0.16693717
170	0x3e0ef48f	0.13960479
171	0x3e911805	0.28338638
172	0x3baeffea	0.005340566
173	0x3c462017	0.012092612
174	0xbe7bca6d	-0.24588938
175	0xbe3aa315	-0.18226273
176	0xbf5946ca	-0.8487364
177	0xbc03821d	-0.008026627
178	0x3e9f9cd1	0.3117433
179	0xbe0c0942	-0.13675407
180	0xbeed7101	-0.46375278
181	0x3d62cb1d	0.055369485
182	0x3f893a84	1.0720983
183	0x3eb3641f	0.35037324
184	0x3e4ca41c	0.19984478
185	0xbf3b814c	-0.73244166
186	0x3e2960a0	0.16540766
187	0x3edbb451	0.42911008
188	0x3ede5949	0.43427494
189	0xbc36ad3c	-0.011149701
190	0x3db27ba9	0.087149926
191	0xbeff1289	-0.4981883

actor.2.bias f4 [3]
0	0x3d97ea41	0.07417727
1	0xbe6c80dc	-0.23096031
2	0x3ddecbde	0.10878728
