models/train_ppoAgent_ComboGrid_gw5_h64_l10_lr0.00025_clip0.2_ent0.01_envsd1_TR-BL/seed=0/ppo_first_MODEL.pt (torch, 52328 bytes, 9 tensors)

critic.0.weight f4 [64, 59]
0	0x3b85291d	0.004063739
1	0x3d8b8e3e	0.0681424
2	0xbd6865a4	-0.056737557
3	0xbd74bb04	-0.059748664
4	0x3e8eb9f5	0.2787625
5	0x3eb0ebd4	0.34554923
6	0xbb42b99d	-0.0029712685
7	0xbdff8966	-0.124773785
8	0x3e33c51c	0.1755566
9	0x3e27a14f	0.16370128
10	0x3ddfaa65	0.10921172
11	0xbe4d9a05	-0.20078285
12	0x3b4cc246	0.0031243726
13	0x3d994847	0.07484489
14	0x3d7ea280	0.06216669
15	0xbe322e4f	-0.17400478
16	0xbe62129e	-0.22077414
17	0x3d80f217	0.06296175
18	0xbdaa41c3	-0.08313324
19	0xbdbf10e7	-0.09329396
20	0x3e351a7a	0.17685881
21	0xbe1aec08	-0.15129101
22	0x3e9b6196	0.3034789
23	0x3e0f4853	0.13992433
24	0xbd98c031	-0.074585326
25	0xbd6d373b	-0.057914
26	0xbe7e83c1	-0.24854948
27	0xbe71008a	-0.23535362
28	0xbdada156	-0.08478038
29	0x3d9f7c7b	0.07787415
30	0x3e2ec79f	0.17068337
31	0xbee1d26d	-0.44105855
32	0x3dd537c4	0.10411027
33	0xbeb423f6	-0.35183686
34	0xbd2824b2	-0.04105062
35	0xbbbde804	-0.0057954807
36	0x3de182a9	0.110112496
37	0x3d1c4c04	0.03815843
38	0x3db0f478	0.08640379
39	0xbd9a2cf9	-0.07528109
40	0x3e90482a	0.28180057
41	0xbd883cad	-0.06652198
42	0x3db4d35d	0.08829377
43	0x3e52463a	0.20534602
44	0x3d66fd58	0.05639395
45	0xbe5775e0	-0.2104106
46	0x3de5e830	0.11225927
47	0xbd90b967	-0.07066613
48	0xbdc27c0a	-0.09496315
49	0x3b1be5cc	0.0023788093
50	0xbdc803fd	-0.09766386
51	0xbe4db44f	-0.20088314
52	0x3d7e047c	0.062015995
53	0xbdb9ea1d	-0.09077857
54	0x3ebe3046	0.37146205
55	0xbe0af3be	-0.13569543
56	0x3e89caed	0.26912633
57	0xbe874e4d	-0.26426926
58	0x3e9b949b	0.30386814
59	0x3eb72095	0.35767046
60	0x3e4bb952	0.19894913
61	0x3df042fe	0.11731528
62	0x3e1b7910	0.151829
63	0x3edc4587	0.43021795
64	0x3d23cf09	0.039992366
65	0x3dbf5cfb	0.093439065
66	0xbe023376	-0.12714943
67	0x3e656f78	0.22405803
68	0x3e9acf93	0.30236492
69	0x3dd6dbf2	0.1049117
70	0x3d421b99	0.0473896
71	0x3df57112	0.11984457
72	0xbd231f1b	-0.039824586
73	0x3eab8b7d	0.3350486
74	0xbe1a17f5	-0.15048201
75	0xbe06eb7e	-0.1317577
76	0xbd778b80	-0.060435772
77	0x3e387035	0.18011554
78	0x3eb876d0	0.36028147
79	0xbe827909	-0.25482967
80	0x3cde8b42	0.027166013
81	0x3dd5c856	0.10438602
82	0x3f1a5859	0.6029106
83	0x3edc568d	0.43034783
84	0xbd409d70	-0.047025144
85	0x3c9811d5	0.01856319
86	0xbdb1b094	-0.08676258
87	0x3e8cc04a	0.27490455
88	0xbe13b5f5	-0.1442488
89	0xbe1ee1b4	-0.15515786
90	0xbdff4e55	-0.124661125
91	0x3e697713	0.2279933
92	0xbe9095df	-0.28239343
93	0xbcc8a83b	-0.024494281
94	0x3d436987	0.04770806
95	0x3e32bf9c	0.17455906
96	0x3edb55f1	0.42839006
97	0xbe1c10c6	-0.15240774
98	0x3e0432dd	0.12910028
99	0x3d3ead63	0.046552073
100	0xbded5d8d	-0.11590109
101	0xbce40dff	-0.027838705
102	0xbe5e4f03	-0.21709828
103	0xbe8c8719	-0.2744682
104	0xbc4e82e6	-0.012604451
105	0x3ceeefe9	0.029167132
106	0x3db41c16	0.087944195
107	0xbe00c9fe	-0.12577054
108	0x3c9a103c	0.01880657
109	0x3e4c84e6	0.19972572
110	0xbde75a9e	-0.11296581
111	0xbeb62c1c	-0.35580528
112	0xbe03a05d	-0.12854142
113	0x3e8f3b4d	0.2797493
114	0x3e04ac2b	0.12956302
115	0xbe9d7a77	-0.30757496
116	0x3e1a3ebf	0.15062998
117	0x3cf4bdbf	0.029875634
118	0xbe764520	-0.24049807
119	0xbd86aba1	-0.06575704
120	0xbdb32642	-0.087475315
121	0xbf194ae9	-0.5987993
122	0xbeeb111a	-0.45911485
123	0xbdb7bd59	-0.08971662
124	0x3e11aeed	0.14226885
125	0xbe8c19ff	-0.27363583
126	0xbe840b16	-0.25789708
127	0xbda2aeab	-0.079434715
128	0x3e62268d	0.22085018
129	0xbdba6dac	-0.091029495
130	0xbeb583f2	-0.3545223
131	0x3dc166a0	0.09443402
132	0xbdc687c4	-0.09693864
133	0x3e53a607	0.20668803
134	0x3ed23613	0.4105688
135	0xbde56158	-0.112002075
136	0xbe99d225	-0.3004314
137	0xbe6c19fa	-0.23056784
138	0xbdfeda91	-0.12444032
139	0x3eb19c7a	0.34689695
140	0x3bc485f4	0.005997414
141	0x3cc6ed85	0.02428318
142	0x3d772205	0.060335178
143	0xbe7ab2b6	-0.24482235
144	0xbe2fac4c	-0.1715557
145	0x3e02c9c5	0.12772281
146	0xbd99eebc	-0.07516238
147	0xbd15a3dc	-0.03653322
148	0xbe508ba3	-0.20365767
149	0xbbec0c9f	-0.007203653
150	0x3c7ef0ae	0.015560312
151	0x3e512159	0.20422877
152	0x3e3e2d1c	0.18571895
153	0xbded0b66	-0.1157444
154	0x3dd5a233	0.10431328
155	0xbce3dc3a	-0.027814973
156	0x3cdbe473	0.026842332
157	0x3e15fad7	0.14646469
158	0x3e2b42a6	0.16724643
159	0xbe86953f	-0.2628574
160	0x3e05481f	0.13015793
161	0x3dfc7afc	0.12328145
162	0xbdfcb525	-0.12339238
163	0x3e62d85f	0.22152852
164	0x3e5fe165	0.21863325
165	0xbe1ad877	-0.15121637
166	0xbd43f21e	-0.047838323
167	0x3d9c63c9	0.0763622
168	0x3e3d0e03	0.18462376
169	0x3d4b5f6f	0.04965156
170	0xbe177973	-0.14792423
171	0x3e94a42b	0.290315
172	0xbe85783c	-0.26068294
173	0xbdfd4051	-0.12365783
174	0xbeb65ccd	-0.35617676
175	0xbe833932	-0.25629574
176	0xbd690c30	-0.05689639
177	0x3d0378ec	0.032097742
178	0x3f07d008	0.53051805
179	0x3e218e73	0.15776996
180	0x3e9757ba	0.29559118
181	0x3ed8eac4	0.42366612
182	0xbe1f903e	-0.15582368
183	0xbd1a1f4b	-0.0376275
184	0xbe1a6afd	-0.15079875
185	0x3a11e2a1	0.00055650814
186	0x3e9c99fe	0.30586237
187	0xbd2b0eed	-0.04176228
188	0x3e19236f	0.14954923
189	0x3dac4935	0.08412401
190	0x3e81082c	0.25201547
191	0x3e7a03d2	0.2441552
192	0x3d199f2e	0.03750532
193	0xbd14ae1a	-0.03629885
194	0xbe35afe0	-0.17742872
195	0xbdc28985	-0.09498886
196	0x3d26c40e	0.040714316
197	0xbe8689e9	-0.26277092
198	0x3e06ef6c	0.1317727
199	0x3dbb9ef7	0.091611795
200	0xbda606f4	-0.08106795
201	0x3e853dd0	0.26023722
202	0x3e8925c8	0.26786637
203	0xbd1f08a3	-0.038826596
204	0xbdf5e8ca	-0.120072916
205	0x3e74704b	0.23870961
206	0xbdecb882	-0.115586296
207	0x3e1feead	0.15618391
208	0x3da641a9	0.081179924
209	0xbea4d576	-0.32194108
210	0x3e274805	0.16336067
211	0x3d5ec77b	0.05438946
212	0x3d2c2b75	0.04203363
213	0xbe38cc7f	-0.18046759
214	0x3e8d9a5a	0.27656823
215	0x3bae6795	0.0053224065
216	0x3dcf75fd	0.10129926
217	0xbd96d48e	-0.0736476
218	0x3e540c7e	0.2070789
219	0xbe7585aa	-0.2397677
220	0x3d3cfd8b	0.046140235
221	0x3dbf4c14	0.093406826
222	0xbf164f15	-0.5871442
223	0x3e061298	0.1309303
224	0x3ea028bd	0.3128108
225	0xbe99a941	-0.30011943
226	0xbdad5bbb	-0.08464762
227	0xbcf84714	-0.03030733
228	0x3ea7160d	0.3263401
229	0xbd2a59d9	-0.04158959
230	0x3dcc31e2	0.09970452
231	0x3e759c67	0.23985444
232	0xbd513a4f	-0.051080998
233	0x3e1a717c	0.15082353
234	0x3d280f12	0.041029997
235	0xbe1a9e18	-0.1509937
236	0xbd56e77c	-0.052466854
237	0xbdc7ba9b	-0.09752389
238	0xbc421d23	-0.011847767
239	0xbeee3163	-0.46522054
240	0xbf0ae5ac	-0.542567
241	0x3dcb4405	0.09925083
242	0xbe1c7af1	-0.15281273
243	0x3eb55cf7	0.3542249
244	0xbcc2f193	-0.023796832
245	0xbe4c8118	-0.1997112
246	0xbe7a8441	-0.24464513
247	0x3e526309	0.20545591
248	0xbd2c0180	-0.041993618
249	0xbde4e7fe	-0.111770615
250	0xbe00dbc8	-0.1258384
251	0x3e335ed1	0.17516638
252	0xbead90ac	-0.33899438
253	0xbeda6bde	-0.4266042
254	0xbeabe9ef	-0.33576915
255	0xbdab15e9	-0.083537884

critic.0.bias f4 [64]
0	0x3df56685	0.11982445
1	0x3dee5ab2	0.116383925
2	0xbca442ee	-0.020051446
3	0x3e0e19e4	0.13877064
4	0xbd808245	-0.06274847
5	0xbd818091	-0.0632335
6	0xbce3fb33	-0.027829742
7	0xbd8b95f3	-0.0681571
8	0x3db2cadd	0.08730099
9	0x3d7fbe0d	0.062437106
10	0x3c8a06db	0.016848972
11	0x3c36fb8a	0.01116837
12	0x3e1dc5c8	0.15407479
13	0xbd385986	-0.04500725
14	0xbdae5597	-0.08512419
15	0x3d62088b	0.05518393
16	0x3e080dd0	0.13286519
17	0x3d995e8a	0.07488735
18	0x3dafff0b	0.085935675
19	0x3dc4f9c3	0.09617951
20	0x3cf12427	0.029436184
21	0xbd5a0a72	-0.053232618
22	0x3d9b6a66	0.07588653
23	0x3c2a47bd	0.01039308
24	0xbe9e0c57	-0.3086879
25	0xbd202671	-0.03909916
26	0xbdf7a7f4	-0.120925814
27	0xbca2a039	-0.01985179
28	0xbd74d75e	-0.059775703
29	0xbd9c35a3	-0.07627418
30	0x3d936051	0.07196105
31	0xbdcd2c2d	-0.100181915
32	0x3d2766c0	0.040869474
33	0xbbbe5891	-0.005808898
34	0x3e77d766	0.24203262
35	0x3d73b56e	0.059499197
36	0x3df2a8ce	0.11848603
37	0x3b8d2d8d	0.0043084086
38	0xbd72701e	-0.059188955
39	0xbd08ab92	-0.033366747
40	0x3e5dfd53	0.21678667
41	0xbc911f20	-0.017715037
42	0xbc4c52aa	-0.0124708805
43	0x3e209969	0.15683521
44	0x3bb44843	0.0055017783
45	0x3e0475ad	0.12935515
46	0x3cd92d44	0.026510842
47	0x3de1c4ce	0.11023866
48	0xbc496fc9	-0.012294718
49	0xbe09ed9f	-0.13469552
50	0xbc162700	-0.009164572
51	0x3d73a6d4	0.05948527
52	0x3daf5571	0.085612185
53	0xbd419a69	-0.047266398
54	0x3e5a4734	0.21316224
55	0x3dc869a2	0.09785773
56	0x3ac0e271	0.0014715922
57	0xbe1843d4	-0.14869624
58	0xbe559405	-0.20857246
59	0x3d792ff5	0.06083675
60	0xbe279e66	-0.16369018
61	0xbda833e3	-0.082130216
62	0x3dcdab88	0.100424826
63	0x3e07d37d	0.1326427

critic.2.weight f4 [64, 64]
0	0xbe86443c	-0.26223934
1	0x3d967f6d	0.07348523
2	0xbe2bc294	-0.16773444
3	0x3e0be153	0.13660173
4	0x3d9b0219	0.075687595
5	0xbb7e53aa	-0.0038807192
6	0x3e85091e	0.25983518
7	0xbd789a4e	-0.06069403
8	0x3d271615	0.040792543
9	0xbe9c0805	-0.30474868
10	0x3ca5cdea	0.020239789
11	0xbe01f091	-0.12689425
12	0xbeba89d2	-0.36433274
13	0x3dd45446	0.103676364
14	0xbe829bd2	-0.25509506
15	0xbd0cbe0a	-0.034360923
16	0xbdf93dea	-0.12170012
17	0xbe81f179	-0.25379542
18	0xbe47da44	-0.19516855
19	0xbe70560e	-0.23470327
20	0x3d0bc5e3	0.034124266
21	0xbe09e16f	-0.13464902
22	0x3e60fd22	0.21971563
23	0xbd8c5159	-0.06851453
24	0x3ed99cdd	0.4250249
25	0x3e957cea	0.29196864
26	0x3e8fea69	0.28108528
27	0xbd97ba1e	-0.07408546
28	0xbde3fc1f	-0.11132073
29	0xbe9d7f6c	-0.30761278
30	0x3de0d176	0.109774515
31	0x3ea83230	0.3285079
32	0xbd40e752	-0.047095604
33	0xbe21ce89	-0.15801443
34	0xbdae42b1	-0.08508814
35	0x3d964320	0.07337022
36	0xbcb79ecb	-0.022414586
37	0x3e8a3eff	0.27001187
38	0xbab3c667	-0.0013715745
39	0xbe1a419b	-0.15064089
40	0xbe4dfb47	-0.20115386
41	0x3e9dc019	0.3081062
42	0x3e78c9b0	0.24295688
43	0xbee0fa27	-0.4394085
44	0xbded94f3	-0.116006754
45	0xbd5d858b	-0.054082435
46	0xbe8d0b04	-0.27547467
47	0x3e1e5f0f	0.1546595
48	0x3e3d7b8d	0.18504162
49	0xbe62ffea	-0.22167936
50	0xbd0f746d	-0.03502314
51	0xbddf2417	-0.108955555
52	0xbe2312b1	-0.15925099
53	0x3e91e8e2	0.28497988
54	0xbdd91a75	-0.106007494
55	0x3cee9a02	0.029126171
56	0x3eab80b2	0.33496624
57	0x3bc6da15	0.006068478
58	0x3db9c8f7	0.09071534
59	0x3e4f2f14	0.20232803
60	0x3d3ca9f1	0.046060506
61	0xbc876375	-0.016526917
62	0xbe61c960	-0.22049475
63	0xbd21cbcc	-0.039500996
64	0x3d4993c1	0.049213175
65	0x3d60acdc	0.05485235
66	0xbc85cbe7	-0.01633258
67	0x3eec22e9	0.46120384
68	0xbe4f481b	-0.2024235
69	0x3e43f76b	0.19137351
70	0x3d2bdc57	0.04195818
71	0xbe481c62	-0.19542077
72	0x3d5a56ae	0.05330532
73	0xbd6671b2	-0.056260772
74	0x3f01a831	0.50647265
75	0x3b5f519b	0.003407574
76	0x3e69df39	0.22839059
77	0xbe477f63	-0.19482188
78	0x3e0e5cda	0.13902608
79	0x3e366812	0.17813137
80	0x3e972f1f	0.29528138
81	0x3e9eecbd	0.31039992
82	0xbdb64002	-0.08898927
83	0x3c4aee4f	0.012385919
84	0x3ded8831	0.11598242
85	0xbea54877	-0.3228185
86	0xbe8e6620	-0.2781229
87	0xbe073e88	-0.13207448
88	0x3d2e3bc4	0.042537466
89	0x3c10b495	0.008832117
90	0xbe861ea3	-0.2619525
91	0x3da50147	0.08056884
92	0xbe4a23fa	-0.19740286
93	0x3d2a6769	0.041602526
94	0xbd01c7fb	-0.031684857
95	0x3ea36ec5	0.31920448
96	0x3d6bfc35	0.05761357
97	0x3e11e2bf	0.14246653
98	0x3ef5285b	0.4788235
99	0x3e093bfa	0.13401785
100	0x3e4427e7	0.19155847
101	0x3d930eb6	0.0718054
102	0x3e5afcc8	0.21385491
103	0x3ddb8e8b	0.10720547
104	0x3e8af37a	0.27138883
105	0xbc124e88	-0.008929856
106	0xbd839329	-0.06424553
107	0x3e8b3955	0.27192178
108	0xbdc97b61	-0.09837986
109	0x3eafd059	0.34338644
110	0x3dee4481	0.1163416
111	0xbe22469e	-0.15847251
112	0x3e63e103	0.22253804
113	0xbd008aa8	-0.031382233
114	0x3e9f3ca4	0.31100953
115	0x3e66ba60	0.22532034
116	0x3e8781f7	0.26466343
117	0x3d3febc8	0.046855718
118	0x3e6434c9	0.22285761
119	0x3da284be	0.07935475
120	0x3cce3fff	0.025177
121	0xbead3c47	-0.3383505
122	0xbe16ddf9	-0.14733113
123	0xbd3a04a3	-0.04541458
124	0xbe264e16	-0.16240725
125	0x3e72b3f2	0.23701456
126	0xbd8d74ed	-0.069070674
127	0x3e248c9f	0.16069268
128	0x3dc3bbdd	0.095573165
129	0xbde6a5e0	-0.11262107
130	0x3d040de4	0.03223981
131	0x3dc4159d	0.09574435
132	0x3d8eaed1	0.06966937
133	0xbd1b1f62	-0.037871726
134	0x3dee0a19	0.1162302
135	0x3e8f3b99	0.27975157
136	0xbe1d2089	-0.15344442
137	0xbe973155	-0.29529825
138	0xbd2dba3e	-0.042413943
139	0xbe40a9d9	-0.18814792
140	0x3c97a2f9	0.018510329
141	0x3e945c0c	0.28976476
142	0x3e453553	0.19258623
143	0x3db84a0a	0.08998497
144	0x3dacd780	0.08439541
145	0xbe96a903	-0.2942582
146	0xbd9625e9	-0.073314495
147	0x3dcdc868	0.1004799
148	0x3b45230a	0.00300807
149	0xbdea2543	-0.11432888
150	0x3e21d881	0.15805246
151	0x3e891363	0.26772603
152	0x3dcd158a	0.10013874
153	0xbcafd488	-0.021463647
154	0xbee12a6e	-0.43977684
155	0xbe885c09	-0.26632717
156	0x3bec5d7e	0.0072132936
157	0xbd2458b4	-0.040123656
158	0xbeca2762	-0.39483172
159	0x3e7ad2da	0.24494496
160	0xbecf4071	-0.40478852
161	0xbdea9de4	-0.114558965
162	0xbdb70cb1	-0.089379676
163	0x3ead56b7	0.3385522
164	0xbe0d2c82	-0.1378651
165	0xbc4fd1d5	-0.012684305
166	0x3e582cf2	0.21110895
167	0x3ccbe5f7	0.02488993
168	0x39d6b297	0.0004095032
169	0xbd3e4f76	-0.0464625
170	0xbdef9bf4	-0.116996676
171	0xbe5bc685	-0.21462448
172	0x3eaac50f	0.3335347
173	0xbede5182	-0.4342156
174	0x3e8877d7	0.2665393
175	0xbe96889d	-0.29401103
176	0xbe87fa67	-0.2655823
177	0xbd8e45d3	-0.06946912
178	0xbb270232	-0.0025483486
179	0xbe593a2b	-0.21213596
180	0x3ea2f8e2	0.31830508
181	0x3d6956db	0.056967597
182	0xbd39a4f2	-0.04532332
183	0x3df7b958	0.120958984
184	0x3d18c99e	0.037301652
185	0x3df0731b	0.117407046
186	0x3e8e6416	0.27810735
187	0x3d0e00bc	0.03466867
188	0x3ddf73bf	0.10910749
189	0x3e19030f	0.14942573
190	0x3dd52384	0.10407165
191	0xbea9c7f9	-0.3316038
192	0xbe1bb5a4	-0.15206009
193	0xbcfce444	-0.030870564
194	0x3e68e952	0.22745255
195	0x3d0f4805	0.034980793
196	0x3e616e35	0.22014697
197	0x3c4ca7ec	0.012491208
198	0x3da0ee73	0.078579806
199	0x3d9578e7	0.07298451
200	0xbe25fa7c	-0.16208833
201	0xbdad5be7	-0.084647946
202	0x3e527764	0.20553356
203	0xbd239357	-0.039935436
204	0xbe2da886	-0.16958818
205	0x3db7468a	0.08949001
206	0x3e9055f5	0.2819058
207	0xbf1f316c	-0.62184787
208	0xbe16437d	-0.14674182
209	0xbe912ef8	-0.28356147
210	0xbeac577f	-0.33660504
211	0x3e1b5ec2	0.15172866
212	0x3cdfa3fa	0.02729987
213	0xbb3efae9	-0.0029141253
214	0xbcaf2714	-0.021380939
215	0x3e50fbd7	0.2040857
216	0xbe1174f6	-0.14204773
217	0x3e985531	0.29752496
218	0x3e0f3a37	0.13987051
219	0xbcb34177	-0.021881802
220	0xbe1e8990	-0.15482163
221	0x3e9a5751	0.30144742
222	0xbe73eb94	-0.23820335
223	0x3e4b4ec3	0.19854264
224	0x3e6020ba	0.21887484
225	0x3d5ff414	0.05467613
226	0xbe83244d	-0.25613633
227	0xbe9e19ab	-0.30878958
228	0x3dc878fe	0.097887024
229	0x3e74cedb	0.23907034
230	0x3ea8a14a	0.32935554
231	0x3d8a4aec	0.067525715
232	0xbd76db98	-0.060268015
233	0x3dc92768	0.09821969
234	0x3e997e60	0.2997923
235	0xbefebabb	-0.4975184
236	0x3ed474f7	0.41495487
237	0xbda037d6	-0.0782315
238	0xbe38a303	-0.18030934
239	0xbe6a4051	-0.22876097
240	0xbdec1745	-0.11527876
241	0x3e663fad	0.22485228
242	0x3d975f8e	0.073912725
243	0xbb707959	-0.0036693423
244	0xbe377771	-0.17916657
245	0x3e158d99	0.14604796
246	0x3e5d31b8	0.21600997
247	0xbe04050b	-0.12892549
248	0xbe754cb3	-0.2395504
249	0x3e954514	0.29154265
250	0x3f05b69e	0.52231777
251	0xbe6e8c4e	-0.2329571
252	0x3d105023	0.035232674
253	0xbe05a0ec	-0.13049668
254	0x3d510a52	0.051035233
255	0xbd78bdb7	-0.0607278

critic.2.bias f4 [64]
0	0xbd7b19a4	-0.06130375
1	0x3e0938ce	0.13400576
2	0xbd5e317f	-0.054246422
3	0xbdf76d32	-0.12081374
4	0x3d9cf78d	0.07664404
5	0xbcbef57e	-0.02331042
6	0x3dbe6e3b	0.092983685
7	0x3d440c6b	0.047863405
8	0xbd4c3335	-0.049853522
9	0xbd03aa77	-0.03214499
10	0xbda393c9	-0.07987172
11	0xbd3caff7	-0.04606625
12	0xbd2ae72a	-0.04172436
13	0x3c911e14	0.017714538
14	0x3d917a1a	0.07103367
15	0xbdff652a	-0.124704674
16	0x3d96b8b9	0.07359452
17	0xbdb95271	-0.090489276
18	0xbd153549	-0.03642777
19	0xbe0ba350	-0.13636518
20	0xbe11d518	-0.14241445
21	0x3d15a3eb	0.036533277
22	0xbd0f627c	-0.03500603
23	0x3caf22d0	0.021378905
24	0x3dab34a4	0.0835965
25	0xbd3f5712	-0.046713896
26	0x3d041b6d	0.032252718
27	0x3daa13d3	0.083045624
28	0xbd4a73da	-0.04942689
29	0xbdd0f29f	-0.10202526
30	0x3db9e5f8	0.09077066
31	0x3d317b3d	0.04333042
32	0xbd794f12	-0.060866423
33	0xbd9debdb	-0.077110015
34	0x3bf85a71	0.007579141
35	0x3da52d3e	0.0806527
36	0xbd7bba06	-0.061456703
37	0x3ce5ea34	0.028065778
38	0x3d2cb4e4	0.0421647
39	0xbd4eeddb	-0.050519805
40	0x3d4ddd2a	0.050259747
41	0xbd6a9118	-0.05726728
42	0x3cd97108	0.026543155
43	0x3d61f069	0.055160914
44	0xbd39a648	-0.045324594
45	0x3c8cbc32	0.017179582
46	0x3db5ab90	0.088706136
47	0xbd7037bb	-0.0586469
48	0xbc819a5a	-0.01582067
49	0x3c896fae	0.016776886
50	0xbdd07d56	-0.10180156
51	0x3dc3b8e2	0.09556748
52	0xbd91ea56	-0.07124774
53	0xbd9e07a2	-0.077162996
54	0x3a16bcce	0.000575018
55	0x3d1699f9	0.036767934
56	0x3d683380	0.05668974
57	0x3d0fb523	0.035084855
58	0x3d89a14d	0.06720219
59	0xbc37b24c	-0.011211943
60	0xbd3612ae	-0.044451408
61	0xbda03e30	-0.07824361
62	0xbdb8c1f2	-0.09021367
63	0x3d77bfba	0.06048558

critic.4.weight f4 [1, 64]
0	0xbfb82652	-1.4386694
1	0x3fca485f	1.5803336
2	0x3faa7846	1.3317955
3	0x3f99a40c	1.2003188
4	0xbfa70b17	-1.3050259
5	0xbfd5539d	-1.6666142
6	0x3faa9780	1.3327484
7	0xbfa02913	-1.2512535
8	0x3fbf5190	1.4946766
9	0xbfb45f90	-1.4091663
10	0xbfb8a1b0	-1.4424343
11	0x3fad0503	1.3517154
12	0xbfb2776c	-1.3942695
13	0x3fa08cb3	1.2542938
14	0xbfa70c9b	-1.3050722
15	0xbf9fc8ce	-1.2483156
16	0x3fa3c578	1.2794638
17	0xbfa2d440	-1.2721024
18	0x3fa22e24	1.2670331
19	0x3fa00fa5	1.2504774
20	0xbfc9bf64	-1.5761533
21	0xbfaf9e73	-1.372023
22	0x3fa5832f	1.2930659
23	0x3fabca9f	1.342121
24	0xbfa3a206	-1.2783821
25	0x3fd3ee8f	1.6557177
26	0xbf9a6ea5	-1.2065016
27	0xbfbe02a2	-1.4844553
28	0x3faa5fc2	1.3310473
29	0x3f9c7a6b	1.2224859
30	0xbf96aaac	-1.1770835
31	0x3fc5c5de	1.5451009
32	0xbfa1a4b4	-1.2628388
33	0xbfac00f4	-1.3437791
34	0x3f971726	1.1803939
35	0x3fc88243	1.5664753
36	0x3fa7cac9	1.310876
37	0xbfc70cbb	-1.555076
38	0xbfa51e32	-1.289984
39	0xbfaa9fe5	-1.3330046
40	0x3fba2dfa	1.4545281
41	0x3f9a0535	1.2032839
42	0x3f950e82	1.1645052
43	0xbf9db4a3	-1.2320751
44	0x3fa10793	1.2580436
45	0x3fb1ee9d	1.3900944
46	0xbfa52980	-1.290329
47	0xbfa464f0	-1.2843304
48	0xbfa18be3	-1.2620815
49	0xbf98c6c1	-1.1935655
50	0xbfa4a9e2	-1.2864344
51	0x3fc5db4a	1.5457547
52	0xbfa63494	-1.2984796
53	0xbfb2f954	-1.3982339
54	0xbfa558ac	-1.2917686
55	0x3fb8278c	1.4387069
56	0xbf9aebec	-1.2103248
57	0x3fafa12e	1.3721063
58	0xbf9a1cc1	-1.2040025
59	0x3f9d4bf6	1.2288806
60	0x3f9abf90	1.208971
61	0x3faa634a	1.3311551
62	0x3fa074eb	1.253568
63	0x3fd95861	1.6980096

actor.0.weight f4 [64, 59]
0	0x3e4b467e	0.1985111
1	0x3d1e5a05	0.038660068
2	0x3e26dd33	0.16295318
3	0x3e2d7c78	0.16942012
4	0xbec8d31b	-0.3922356
5	0x3ec5de58	0.38646197
6	0xbe097001	-0.13421632
7	0x3d94b57f	0.0726118
8	0xbd36185e	-0.044456832
9	0x3d9f9520	0.07792115
10	0x3e79524a	0.24347797
11	0x3e6c7bfb	0.2309417
12	0x3e8f098d	0.27936974
13	0xbe86bf42	-0.26317793
14	0xbe5a6490	-0.21327424
15	0x3e1e5f4c	0.1546604
16	0x3de3d784	0.11125091
17	0xbeb97e4e	-0.36229175
18	0xbeb6b517	-0.35685036
19	0xbdd91677	-0.10599988
20	0x3d5a95ce	0.05336552
21	0xbea82d3d	-0.32847014
22	0x3de9f23d	0.114231564
23	0xbeb7c373	-0.35891303
24	0xbe8fe9cf	-0.2810807
25	0xbe434da1	-0.19072582
26	0x3ed713fc	0.42007434
27	0xbe6568b0	-0.22403216
28	0x3e3c6e5d	0.18401475
29	0x3dd226cc	0.10261306
30	0x3d06428e	0.032778315
31	0x3f361e1a	0.7113968
32	0xbec611d7	-0.38685486
33	0xbe89e7f0	-0.26934767
34	0xbd4c9934	-0.049950793
35	0x3dd055cc	0.101726145
36	0x3ea577ae	0.3231787
37	0xbe945396	-0.2897002
38	0xbccd642b	-0.025072178
39	0xbe3277e9	-0.17428555
40	0xbe0217d3	-0.127044
41	0xbcfabc97	-0.030607505
42	0x3b84c426	0.004051703
43	0x3e2d4155	0.16919453
44	0x3e3d0b60	0.1846137
45	0x3dc16524	0.09443119
46	0xbcafc36d	-0.021455491
47	0x3e5d00fe	0.2158241
48	0x3d30750d	0.04308038
49	0x3b354664	0.0027660364
50	0x3de03abc	0.10948703
51	0xbe443820	-0.19162035
52	0x3b2d61e6	0.0026456057
53	0x3ca51fd1	0.020156773
54	0x3ea8ca3e	0.329668
55	0x3d2e6d9b	0.042584997
56	0xbb07838f	-0.002067778
57	0xbdc96785	-0.09834198
58	0xbcabce06	-0.020972263
59	0xbd09e837	-0.033668723
60	0xbb1076fe	-0.002204358
61	0xbaf6929e	-0.0018812006
62	0x3d90c022	0.070678964
63	0x3d465fe1	0.04843128
64	0xbcd66af7	-0.026174052
65	0xbc19a2af	-0.009377166
66	0x3d27d9c1	0.04097915
67	0x3d103d73	0.035214853
68	0x3c1a7371	0.009426937
69	0xbc3ce115	-0.011528273
70	0xbc59ca40	-0.013292849
71	0xbc18b908	-0.009321459
72	0xbc9b9a38	-0.018994436
73	0x3e49bc92	0.1970084
74	0x3e4e34ae	0.20137283
75	0xbbb58747	-0.005539808
76	0x3eb9b068	0.362674
77	0x3ebabe54	0.36473334
78	0x3ebbcbe9	0.3667901
79	0x3dedfc16	0.11620347
80	0x3eaa18e9	0.3322213
81	0xbe9eb441	-0.30996898
82	0xbd8f0cd2	-0.06984867
83	0xbe03c2c8	-0.12867272
84	0x3f872969	1.0559512
85	0xbdcdaf3e	-0.100431904
86	0xbe71dc7c	-0.23619264
87	0x3d0d3faa	0.034484543
88	0xbdbbde21	-0.09173227
89	0xbe2467c1	-0.16055204
90	0x3e129373	0.1431406
91	0xbef8070f	-0.48442885
92	0xbd924c0e	-0.071434125
93	0x3d12ec13	0.03586967
94	0x3e948f8b	0.29015765
95	0xbd9e17c3	-0.07719376
96	0xbe2a36a2	-0.16622403
97	0x3b5ccd01	0.0033691528
98	0x3e7fd073	0.24981861
99	0xbe64146d	-0.22273417
100	0x3e2632de	0.16230342
101	0xbe3b184f	-0.18270992
102	0xbe198cd1	-0.14995123
103	0xbde017f1	-0.109420665
104	0xbe8297c0	-0.255064
105	0xbe77801c	-0.24169964
106	0x3c22246d	0.00989638
107	0xbe62f072	-0.22162035
108	0x3d0f0abe	0.034922354
109	0x3c0b4ced	0.008502227
110	0xbe13f739	-0.14449777
111	0x3e8a4ced	0.27011815
112	0x3e4047d6	0.18777403
113	0xbd0df9f2	-0.034662195
114	0xbd7b78d6	-0.061394535
115	0xbbe0b617	-0.0068576443
116	0xbe82a970	-0.25519896
117	0x3defbfb4	0.11706486
118	0x3e9dd8d5	0.30829492
119	0x3de0f3e9	0.10984022
120	0x3e938f26	0.2882015
121	0xbe1eeff0	-0.15521216
122	0x3de311f9	0.110874124
123	0x3ed87e1b	0.4228371
124	0x3f1babb5	0.6080888
125	0xbccae667	-0.024768068
126	0x3c278d02	0.01022649
127	0xbe15b9d0	-0.14621663
128	0x3eae2c21	0.34018043
129	0x3df547c2	0.11976577
130	0xbce548a8	-0.027988747
131	0x3d088c1f	0.033336755
132	0xbbb19fd4	-0.0054206643
133	0x3f1c00f6	0.60938966
134	0xbeaa24f3	-0.33231315
135	0xbe98b704	-0.2982713
136	0xbdb3ea67	-0.08784943
137	0xbe944951	-0.28962186
138	0xbca0fbdb	-0.019651344
139	0xbe8fe48b	-0.28104052
140	0xbe61e6e8	-0.2206074
141	0xbe9cf199	-0.30653074
142	0xbe07477f	-0.13210867
143	0xbc8168c1	-0.01579702
144	0x3ee55601	0.44792178
145	0xbb560523	-0.003265687
146	0xbd8f3396	-0.06992261
147	0xbec0dd3b	-0.37668785
148	0xbd887a29	-0.06663925
149	0xbe76b088	-0.24090779
150	0xbdba3f7a	-0.090941384
151	0xbe890605	-0.26762405
152	0xbe0a12d4	-0.13483745
153	0x3d1fed51	0.039044682
154	0xbd313ab0	-0.04326886
155	0x3e5bde7a	0.21471587
156	0x3d62d9bd	0.055383433
157	0x3efb39bf	0.49067494
158	0x3d005218	0.03132829
159	0xbd60e97c	-0.054910168
160	0x3dff4388	0.124640524
161	0x3e628f3a	0.22124949
162	0x3ea51669	0.3224366
163	0x3eaa71d2	0.33289963
164	0xbbda49e4	-0.0066616405
165	0x3dd8e7e7	0.10591107
166	0xbdfaafe6	-0.12240581
167	0xbe6c63d5	-0.23084958
168	0xbe36c528	-0.17848647
169	0x3e2858c5	0.16440113
170	0x3d676b11	0.05649859
171	0x3e6947d3	0.22781305
172	0x3e472589	0.19447912
173	0x3e5b0c67	0.2139145
174	0x3e12660c	0.1429674
175	0xbda1caeb	-0.07900032
176	0x3ded0ba6	0.115744874
177	0xbe90a7b6	-0.28252953
178	0x3f0182b9	0.5059009
179	0x3ca5f2d5	0.020257393
180	0xbd821072	-0.06350793
181	0x3c4c00d4	0.012451369
182	0xbe1894e3	-0.14900546
183	0xbb63ed62	-0.0034778942
184	0x3e590143	0.21191888
185	0xbddadd35	-0.10686723
186	0xbe2acce5	-0.16679724
187	0xbe792c3a	-0.24333277
188	0xbd2c0ce4	-0.04200448
189	0x3d4b67c6	0.049659513
190	0x3eafe6be	0.3435573
191	0xbe3f0f69	-0.18658222
192	0x3ec456cc	0.3834747
193	0xbe67bdd8	-0.22631013
194	0xbdf9e740	-0.122023106
195	0x3d118e8d	0.035536338
196	0xbddeb286	-0.108738944
197	0x3e2a0c18	0.16606176
198	0x3e12d9c8	0.1434089
199	0x3df197b4	0.11796513
200	0xbe49d6ea	-0.1971089
201	0x3e73abdf	0.23796032
202	0xbe960092	-0.2929731
203	0x3e52289b	0.20523302
204	0xbe2bf596	-0.16792902
205	0x3d8c3ee0	0.0684793
206	0x3eca7d87	0.39548895
207	0xbe43c360	-0.19117498
208	0x3eadfcaf	0.33981845
209	0xbd304c82	-0.043041714
210	0x3def194d	0.116747476
211	0xbc1e9456	-0.009678921
212	0x3bc1daaa	0.0059159594
213	0x3bd1e8cd	0.006405926
214	0x3e1f1fd0	0.1553948
215	0x3e0f09c9	0.13968576
216	0x3d810da6	0.06301431
217	0xbe60a6f2	-0.21938685
218	0x3e0d85ac	0.13820523
219	0xbea8898b	-0.32917437
220	0x3d04f82c	0.032463238
221	0x3d1c4692	0.03815324
222	0x3e045eb2	0.12926748
223	0xbdb5fac0	-0.088857174
224	0xbcff5aa5	-0.031171152
225	0xbd118a2a	-0.035532154
226	0x3e356660	0.17714834
227	0x3e0b39ca	0.13596264
228	0xbe67ea42	-0.22647956
229	0xbe9d7c1c	-0.3075875
230	0xbc89641c	-0.016771369
231	0xbd99cb6d	-0.075095035
232	0xbcfb2d54	-0.030661263
233	0xbe091ecd	-0.13390656
234	0xbde7463b	-0.11292692
235	0xbea68468	-0.32522893
236	0xbe743d9f	-0.23851632
237	0xbe17389e	-0.14767691
238	0xbe9b67d8	-0.30352664
239	0xbd70ee37	-0.05882093
240	0xbe253301	-0.16132738
241	0xbeaaf9cb	-0.33393702
242	0xbe9b9882	-0.30389792
243	0x3e522a4b	0.20523946
244	0x3d5a2554	0.053258255
245	0xbd9f818b	-0.0778838
246	0xbea2c834	-0.31793368
247	0xbead8a39	-0.33894518
248	0xbe3f2fe9	-0.1867062
249	0xbd0805a8	-0.03320852
250	0xbcd7779b	-0.02630215
251	0xbea57432	-0.32315212
252	0xbc80fbd6	-0.015745085
253	0x3ea8433d	0.328638
254	0x3e89aad0	0.26888132
255	0x3c3942fa	0.011307472

actor.0.bias f4 [64]
0	0x3d0d24af	0.034458812
1	0x3d589710	0.05287844
2	0x3dcc09f0	0.09962833
3	0xbc9d9b9b	-0.019239238
4	0x3e1062e2	0.14100221
5	0xbd2c3c8a	-0.042049922
6	0x3de9e6b8	0.11420959
7	0x3d0b32ec	0.03398411
8	0xbc535a84	-0.012899999
9	0x3e52f12c	0.20599812
10	0x3ce43188	0.02785565
11	0x3e6c4c92	0.23076084
12	0x3eb77d9a	0.35838014
13	0xbd81c46f	-0.06336295
14	0x3e230b9f	0.15922402
15	0xbcf267f5	-0.029590586
16	0x3c72c9ba	0.014818603
17	0x3c905d10	0.0176225
18	0x3ecce248	0.4001639
19	0x3d80b58b	0.062846266
20	0x3d1492f4	0.036272958
21	0xbd8c6a91	-0.068562634
22	0xbcbdfdfd	-0.0231924
23	0x3ed8e927	0.4236538
24	0x3cd58d0f	0.026068239
25	0x3c02de20	0.007987529
26	0x3db9d229	0.09073288
27	0x3d618ee7	0.055067923
28	0x3e0145b7	0.1262425
29	0x3d6cbbac	0.057796165
30	0x3d74fef1	0.059813444
31	0xbcc2674b	-0.023730895
32	0xbd072196	-0.032991014
33	0xbc91d99c	-0.01780396
34	0xbc5cab89	-0.013468632
35	0x3ea29a3c	0.31758296
36	0xbd80c070	-0.062867045
37	0x3e30feb0	0.17284656
38	0x3e7a8123	0.24463324
39	0xbd4d3fb8	-0.050109595
40	0x3e47b489	0.19502462
41	0xbce339cc	-0.02773752
42	0x3ccc86ac	0.02496656
43	0x3db69b01	0.089162834
44	0x3ca437ed	0.020046199
45	0x3d1a4c1c	0.03767024
46	0x3c88809b	0.016662886
47	0x3eac3b2f	0.33638903
48	0x3ddefbe3	0.10887887
49	0x3d0ae32b	0.03390805
50	0x3d6649b5	0.056222636
51	0xbc80c4c2	-0.015718821
52	0x3c1d52f8	0.009602301
53	0x3d1b7b19	0.037959192
54	0x3d8e099c	0.069354266
55	0x3e4039e9	0.18772091
56	0xbb094223	-0.0020943962
57	0x3e28a3b7	0.16468702
58	0x3ddd33e0	0.1080091
59	0x3e7b8baa	0.24564996
60	0xbcef8329	-0.029237347
61	0x3e4a73bb	0.1977071
62	0xbc48b16b	-0.012249331
63	0xbd2201a1	-0.039552335

actor.2.weight f4 [3, 64]
0	0x3f0b1466	0.54328
1	0xbf37d47a	-0.7180859
2	0x3eed29a9	0.46320847
3	0x3e9fbf48	0.31200624
4	0xbf397f68	-0.7246003
5	0x3f0db58a	0.5535513
6	0x3ec3414d	0.38135758
7	0x3eb3b9d0	0.351027
8	0xbf3484ab	-0.70514935
9	0x3f4595c1	0.7718163
10	0x3e90aade	0.2825536
11	0x3ea15136	0.31507272
12	0x3e985f42	0.29760176
13	0xbf243945	-0.64149886
14	0xbe8c8bb3	-0.27450332
15	0xbf66ab1c	-0.9010484
16	0x3e8f4929	0.27985504
17	0xbe9bf6f6	-0.30461854
18	0x3e9eb21b	0.3099526
19	0x3b3da4c5	0.0028937322
20	0x3f0a9a2e	0.5414151
21	0x3f54755f	0.82991594
22	0xbed86872	-0.42267185
23	0x3f186bf5	0.5953973
24	0xbf29bb47	-0.6630139
25	0xbf70c963	-0.9405729
26	0x3e901ca8	0.28146863
27	0x3e885dea	0.2663415
28	0xbf2cdb20	-0.6752186
29	0xbeeb04be	-0.45902056
30	0x3ea98948	0.3311255
31	0xbf370d9c	-0.7150514
32	0xbf22690d	-0.63441545
33	0xbf308cf9	-0.6896511
34	0xbf2579f2	-0.646392
35	0x3e32d5f9	0.17464437
36	0xbe7fd47d	-0.24983402
37	0x3f255798	0.6458678
38	0x3f283c9f	0.657175
39	0xbe97b6a2	-0.29631525
40	0xbdc69bef	-0.09697711
41	0xbee3016e	-0.44337028
42	0x3e637b7c	0.22215074
43	0xbd35a48e	-0.044346385
44	0xbf5d70ba	-0.8650013
45	0xbd44175a	-0.047873832
46	0xbe437349	-0.19086947
47	0x3f14d074	0.58130574
48	0xbea194a3	-0.31558713
49	0xbda4bb59	-0.08043546
50	0xbf3efb60	-0.7460232
51	0x3dd30b40	0.1030488
52	0xbd83c86a	-0.0643471
53	0x3e0a3c9c	0.13499683
54	0xbe93d122	-0.28870493
55	0x3e952388	0.2912867
56	0x3ee9e57d	0.45682898
57	0xbe22e83d	-0.15908904
58	0xbe05726f	-0.13031934
59	0xbe29578b	-0.16537301
60	0xbe92750e	-0.2860493
61	0xbd06fddf	-0.032956954
62	0xbefbfce4	-0.49216378
63	0xbe5f4703	-0.21804433
64	0x3e97aae2	0.2962256
65	0x3eace165	0.33765712
66	0xbe2c12f8	-0.16804111
67	0xbc8e010a	-0.01733448
68	0xbed73967	-0.42035982
69	0x3e871d24	0.2638942
70	0x3e1d1489	0.15339865
71	0x3ecec999	0.40388182
72	0x3f25ec4e	0.648137
73	0xbf164c5f	-0.58710283
74	0xbe52538f	-0.20539688
75	0xbf2510c5	-0.64478713
76	0xbfaa352c	-1.3297477
77	0x3efcaa5b	0.4934872
78	0xbe6b0684	-0.22951704
79	0x3f0ab0c4	0.5417597
80	0x3d15cdca	0.03657321
81	0x3f912198	1.1338377
82	0xbf86cffd	-1.0532223
83	0x3f4dc9c6	0.80386007
84	0xbd5d72df	-0.054064628
85	0xbe5a5414	-0.21321136
86	0x3f835d5b	1.0262865
87	0xbf4d7bdd	-0.80267125
88	0x3ee16773	0.44024238
89	0x3dbb0970	0.091326594
90	0xbe9386d7	-0.28813812
91	0x3f00c011	0.5029307
92	0x3f96f936	1.1794803
93	0xbac16751	-0.0014755522
94	0x3db4458d	0.08802328
95	0x3f0eb427	0.5574364
96	0x3edeafd7	0.4349353
97	0x3e5fae3f	0.21843813
98	0x3e781e9d	0.24230428
99	0xbf9fae0c	-1.247499
100	0xbebcd25c	-0.3687924
101	0xbe609405	-0.21931465
102	0xbf5c41f5	-0.8603814
103	0x3e71aa74	0.23600179
104	0x3f0994ac	0.5374248
105	0x3e4ebd36	0.20189366
106	0x3e69487f	0.22781561
107	0xbd83a360	-0.06427646
108	0x3e7d25f9	0.24721517
109	0xbf0c772b	-0.54869336
110	0x3f1a763b	0.60336655
111	0xbf513cca	-0.8173338
112	0x3f1ccb7f	0.6124801
113	0x3ddc53b4	0.107581526
114	0x3f32a569	0.69783646
115	0x3ecef9ba	0.404249
116	0x3f070018	0.5273452
117	0xbf288d9c	-0.6584108
118	0xbef8df99	-0.4860809
119	0xbf0bfa20	-0.54678535
120	0x3eee0237	0.46486065
121	0x3f1afd06	0.60542333
122	0xbec275cd	-0.379805
123	0xbf336123	-0.70070094
124	0xbe6cc316	-0.23121294
125	0xbf00a0cf	-0.50245374
126	0x3f3ca18c	0.73684
127	0x3f44a90e	0.76820457
128	0xbebcba7b	-0.36861023
129	0xbc6d7e16	-0.014495393
130	0xbefd4413	-0.49466
131	0xbf21cf36	-0.63206804
132	0x3f2e5414	0.68097043
133	0xbe932183	-0.28736505
134	0xbf2b62ed	-0.66947824
135	0xbf2a2cb1	-0.66474444
136	0x3daf6c94	0.085656315
137	0xbeaa6963	-0.3328353
138	0xbef3c9ef	-0.47615
139	0x3e030be6	0.12797508
140	0x3ed9db62	0.42550188
141	0xbd74fb18	-0.059809774
142	0x3f727f50	0.94725513
143	0xbd2326d8	-0.039831966
144	0xbef18921	-0.47174934
145	0xbe86400c	-0.2622074
146	0x3f2f9222	0.68582356
147	0xbf6ca048	-0.9243207
148	0xbef89a90	-0.48555422
149	0xbf0c8052	-0.548833
150	0xbf48fc6a	-0.78510153
151	0x3f125a0c	0.5716865
152	0x3e785975	0.24252875
153	0x3f824fde	1.0180624
154	0xbe604854	-0.21902591
155	0xbf0e9337	-0.5569338
156	0xbef760b8	-0.48315978
157	0x3ebef1f5	0.37293974
158	0xbe9c723d	-0.30555907
159	0x3dad08d7	0.08448952
160	0x3e808b94	0.2510649
161	0x3e8b6d11	0.2723165
162	0x3f069091	0.5256434
163	0x3c312e22	0.010814222
164	0x3edd848c	0.43265188
165	0xbf7bf0b1	-0.9841414
166	0xbeab5887	-0.33465979
167	0xbd4ca9ef	-0.04996675
168	0xbf70d521	-0.9407521
169	0x3e47faaa	0.19529215
170	0xbf1b5d68	-0.606894
171	0x3ee0893b	0.438547
172	0x3e795dd8	0.24352205
173	0x3ed6c42f	0.4194655
174	0xbebea8eb	-0.3723825
175	0xbd4dfe52	-0.050291367
176	0xbf4c1dd5	-0.7973302
177	0x3c5c9dc0	0.013465345
178	0x3e696cb6	0.22795376
179	0xbdbd54c9	-0.09244687
180	0xbf59946c	-0.849921
181	0x3df4cd9f	0.119532816
182	0x3f63fd5f	0.8905849
183	0x3e02830a	0.127453
184	0xbe73ee0a	-0.23821273
185	0xbf6468a1	-0.8922215
186	0x3ed7d29f	0.4215288
187	0x3f4a743b	0.79083604
188	0xbd9ed625	-0.077556886
189	0x3e696f0a	0.22796264
190	0xbf28adc6	-0.6589016
191	0xbeda4ec1	-0.4263821

actor.2.bias f4 [3]
0	0x3d946684	0.07246116
1	0xbe50a0cd	-0.2037384
2	0x3d952de6	0.07284145
