models/train_ppoAgent_ComboGrid_gw5_h64_l10_lr0.00025_clip0.2_ent0.01_envsd3_BL-TR/seed=0/ppo_first_MODEL.pt (torch, 52328 bytes, 9 tensors)

critic.0.weight f4 [64, 59]
-0.027853273 0.020542422 -0.18197183 -0.2501413 -0.04676571 0.14678723 -0.108781666 -0.42736706
-0.036684033 0.010584612 0.026150556 -0.29685494 -0.092318915 -0.044943668 -0.14952344 -0.25567847
-0.31910557 0.0717288 -0.07287855 -0.17118996 -0.093913704 -0.17938705 0.25336188 0.1352135
-0.056307167 -0.21389721 -0.27201325 -0.23535362 -0.36523205 -0.13396932 0.17068337 -0.6658934
-0.09728783 -0.35183686 -0.04105062 -0.0057954807 0.110112496 0.03815843 -0.093916915 -0.07528109
0.28180057 -0.06652198 0.08829377 0.20534602 0.05639395 -0.2104106 0.11225927 -0.07066613
-0.09496315 0.0023788093 -0.09766386 -0.20088314 0.062015995 -0.09077857 0.25163892 -0.13569543
0.26912633 -0.26426926 0.30386814 0.022330256 -0.1347277 -0.077527426 0.01299247 0.0115691675
-0.21290566 -0.16562232 -0.24952279 0.19112435 0.09128406 -0.10020886 0.018591687 0.12705462
-0.057262465 0.17556024 -0.57292575 -0.25676316 -0.24113275 0.12445485 0.095437095 -0.6891452
-0.37626565 -0.21048349 0.060207043 -0.029238787 -0.050236493 0.13297328 -0.08676258 0.1508248
-0.21150643 -0.15515786 -0.19219925 0.22058307 -0.28239343 -0.024494281 0.04770806 0.17455906
0.42839006 -0.2805948 0.12910028 0.046552073 -0.11590109 -0.027838705 -0.21709828 -0.2744682
-0.012604451 0.029167132 0.087944195 -0.12577054 0.01880657 0.19972572 -0.11296581 -0.35580528
-0.12854142 0.16336282 0.12956302 -0.30757496 0.15062998 0.029875634 -0.02874184 0.10334918
0.011483098 -0.6269703 -0.128465 0.10126307 0.2727452 -0.10009488 -0.15424983 0.022810115
0.4275027 0.097892545 -0.17929265 0.22307691 0.0422355 0.44912362 0.5335031 0.15892233
-0.024485646 0.053675186 0.31566232 0.44007674 0.22800925 0.19566484 0.21256813 -0.22300398
-0.15461881 0.12772281 0.0065072654 0.0238367 -0.20365767 -0.008132969 0.06206189 0.20422877
0.18571895 -0.1157444 0.10431328 -0.027814973 0.052744787 0.14646469 0.16724643 -0.2628574
0.13015793 0.12328145 -0.12339238 0.22152852 0.21863325 -0.15121637 -0.047838323 0.0763622
0.18462376 0.04965156 -0.14792423 0.290315 -0.24063224 -0.12365783 -0.35617676 -0.25629574
-0.05689639 -0.079162344 0.30147308 -0.11518045 -0.24449085 0.10904869 -0.075820476 -0.13654582
-0.23266605 -0.29434603 -0.053847883 0.16222212 0.23213625 0.11471611 0.14460286 -2.2827855e-05
0.27052093 0.16114311 0.08273753 -0.007470923 -0.12572244 0.10739176 0.32265842 0.3210693
-0.018784633 0.17526667 0.23463388 0.026910689 -0.120072916 0.21325785 -0.14811695 0.15618391
0.07008011 -0.19574727 0.16336067 0.05438946 0.04203363 -0.18046759 0.27656823 0.006385333
0.10129926 -0.0736476 0.2070789 -0.2397677 0.046140235 0.093406826 -0.5871442 0.1309303
0.3128108 -0.30011943 -0.08464762 -0.03030733 0.3263401 -0.04158959 0.09970452 0.10108217
-0.051080998 0.15082353 0.041029997 -0.1509937 -0.14567454 -0.14407174 -0.0046404814 -0.31319177
0.058173265 0.06377953 -0.22111748 0.39934656 -0.027375428 -0.093169056 -0.16990751 0.21853174
-0.048519466 -0.014794052 -0.020114025 0.25940856 -0.363833 -0.2824506 -0.26226112 -0.10437496
00000000: 8c2c e4bc 9548 a83c d356 3abe 8512 80be
00000010: 678d 3fbd 644f 163e ecc8 debd dbcf dabe
00000020: ff41 16bd 156b 2d3c b139 d63c 5ffd 97be
00000030: b311 bdbd da16 38bd ac1c 19be 4ae8 82be
00000040: ce61 a3be 8de6 923d 5941 95bd 6c4c 2fbe
00000050: d455 c0bd 3db1 37be a6b8 813e 6875 0a3e
00000060: 58a2 66bd df07 5bbe 5245 8bbe 8a00 71be
00000070: b2ff babe 412f 09be 9fc7 2e3e fd77 2abf
00000080: d83e c7bd f623 b4be b224 28bd 04e8 bdbb
00000090: a982 e13d 044c 1c3d 8357 c0bd f92c 9abd
000000a0: 2a48 903e ad3c 88bd 5dd3 b43d 3a46 523e
000000b0: 58fd 663d e075 57be 30e8 e53d 67b9 90bd
000000c0: 0a7c c2bd cce5 1b3b fd03 c8bd 4fb4 4dbe
000000d0: 7c04 7e3d 1dea b9bd d1d6 803e bef3 0abe
000000e0: edca 893e 4d4e 87be 9b94 9b3e f1ed b63c
000000f0: 0ff6 09be b3c6 9ebd 5ede 543c 9b8c 3d3c
00000100: f103 5abe e698 29be e782 7fbe 1ab6 433e
00000110: 23f3 ba3d 4e3a cdbd 984d 983c 9b1a 023e
00000120: 0c8c 6abd 10c6 333e 43ab 12bf 7676 83be
00000130: 81eb 76be 2fe2 fe3d 8674 c33d d26b 30bf
00000140: e4a5 c0be fc88 57be a99b 763d 2e86 efbc
00000150: c8c4 4dbd 262a 083e 94b0 b1bd d171 1a3e
00000160: 2495 58be b4e1 1ebe e1cf 44be 87e0 613e
00000170: df95 90be 3ba8 c8bc 8769 433d 9cbf 323e
00000180: f155 db3e 1faa 8fbe dd32 043e 63ad 3e3d
00000190: 8d5d edbd ff0d e4bc 034f 5ebe 1987 8cbe
000001a0: e682 4ebc e9ef ee3c 161c b43d fec9 00be
000001b0: 3c10 9a3c e684 4c3e 9e5a e7bd 1c2c b6be
000001c0: 5da0 03be 9548 273e 2bac 043e 777a 9dbe
000001d0: bf3e 1a3e bfbd f43c 0274 ebbc bca8 d33d
000001e0: 9b23 3c3c 2081 20bf 548c 03be 0363 cf3d
000001f0: 42a5 8b3e 8bfe ccbd abf3 1dbe 47dc ba3c
00000200: a2e1 da3e e37b c83d 7e98 37be 466e 643e
00000210: 22ff 2c3d 88f3 e53e a993 083f 89bc 223e
00000220: 1f96 c8bc 83da 5b3d 7e9e a13e bd51 e13e
00000230: 427b 693e 5d5c 483e 76ab 593e 285b 64be
00000240: 6554 1ebe c5c9 023e e63a d53b 2f45 c33c
00000250: a38b 50be 2540 05bc 9c34 7e3d 5921 513e
00000260: 1c2d 3e3e 660b edbd 33a2 d53d 3adc e3bc
00000270: eb0a 583d d7fa 153e a642 2b3e 3f95 86be
00000280: 1f48 053e fc7a fc3d 25b5 fcbd 5fd8 623e
00000290: 65e1 5f3e 77d8 1abe 1ef2 43bd c963 9c3d
000002a0: 030e 3d3e 6f5f 4b3d 7379 17be 2ba4 943e
000002b0: 4c68 76be 5140 fdbd cd5c b6be 3239 83be
000002c0: 300c 69bd de1f a2bd ae5a 9a3e bae3 ebbd
000002d0: cf5b 7abe eb54 df3d c447 9bbd abd2 0bbe
000002e0: 0240 6ebe 86b4 96be 998f 5cbd 8e1d 263e
000002f0: 20b5 6d3e 48f0 ea3d c612 143e 727e bfb7
00000300: b881 8a3e b302 253e 4b72 a93d a5ce f4bb
00000310: 62bd 00be 36f0 db3d 7c33 a53e 3263 a43e
00000320: 3be2 99bc 1b79 333e dd43 703e ce73 dc3c
00000330: cae8 f5bd 4460 5a3e f8ab 17be adee 1f3e
00000340: 2986 8f3d f971 48be 0548 273e 7bc7 5e3d
00000350: 752b 2c3d 7fcc 38be 5a9a 8d3e 0e3c d13b
00000360: fd75 cf3d 8ed4 96bd 7e0c 543e aa85 75be
00000370: 8bfd 3c3d 144c bf3d 154f 16bf 9812 063e
00000380: bd28 a03e 41a9 99be bb5b adbd 1447 f8bc
00000390: 0d16 a73e d959 2abd e231 cc3d 2b04 cf3d
000003a0: 4f3a 51bd 7c71 1a3e 120f 283d 189e 1abe
000003b0: b52b 15be 8b87 13be 2e0f 98bb ac5a a0be
000003c0: 1747 6e3d d89e 823d 9f6c 62be 2777 cc3e
000003d0: 6f42 e0bc 6bcf bebd 3cfc 2dbe c9c6 5f3e
000003e0: 59bc 46bd c062 72bc 2bc6 a4bc 33d1 843e
000003f0: 5248 babe 5d9d 90be 1747 86be 8ac2 d5bd

critic.0.bias f4 [64]
-0.18031982 -0.12819076 0.025902346 0.0010630515 -0.14508547 -0.028163118 0.021666452 0.04004383
-0.101055585 0.026709648 -0.044440687 0.169994 -0.11296112 0.031792283 -0.015650501 -0.025230428
-0.051676534 0.050276373 0.06701335 0.051979356 0.013947139 -0.006375187 -0.03804687 0.0009306222
0.09380811 -0.07391492 0.0769114 -0.11354606 0.11025232 -0.27221304 0.118610375 0.27533597
0.07486461 -0.14313452 0.10085647 -0.21143296 0.039335612 -0.2386423 0.016520835 0.18130918
-0.042000636 -0.031453576 0.045278642 0.009469326 -0.12460434 -0.09212066 -0.045538228 -0.039727192
0.041159514 0.028606368 -0.0651337 -0.14052846 0.25702426 0.16944274 0.15202881 0.049485315
0.043645073 -0.13289264 0.09173317 0.046995845 -0.097801864 -0.026610453 -0.018668627 -0.022263024
00000000: c2a5 38be 7044 03be 2831 d43c 1756 8b3a
00000010: 4991 14be 57b6 e6bc d87d b13c 0005 243d
00000020: 3bf6 cebd 31ce da3c 7007 36bd e812 2e3e
00000030: 2958 e7bd a038 023d 7b35 80bc 0bb0 cebc
00000040: c6aa 53bd 99ee 4d3d 4c3e 893d 4ee8 543d
00000050: 8a82 643c f2e6 d0bb 09d7 1bbd 00f5 733a
00000060: 771e c03d b560 97bd b983 9d3d d68a e8bd
00000070: f8cb e13d 825f 8bbe ffe9 f23d d6f8 8c3e
00000080: 9e52 993d db91 12be d68d ce3d e281 58be
00000090: 611e 213d a65e 74be b456 873c 1da9 393e
000000a0: dc08 2cbd 77d5 00bd 1976 393d 3b25 1b3c
000000b0: 8f30 ffbd c2a9 bcbd 4b86 3abd fbb8 22bd
000000c0: e196 283d e757 ea3c d164 85bd b1e6 0fbe
000000d0: af98 833e 6682 2d3e 71ad 1b3e 1db1 4a3d
000000e0: 2dc5 323d 0215 08be 9ade bb3d b77e 403d
000000f0: 584c c8bd 2afe d9bc f3ee 98bc f260 b6bc

critic.2.weight f4 [64, 64]
-0.34468424 0.02211333 -0.09661317 0.20547949 0.089897744 -0.08980108 0.21172382 0.03509704
-0.041065425 -0.24394067 0.010538601 -0.24120176 -0.23244953 0.19384125 -0.29720527 0.0014928739
-0.1497572 -0.17345555 -0.12541057 -0.052641954 0.118245065 -0.21002857 0.16055463 -0.06422335
0.47050703 0.24218667 0.38028052 -0.20195253 -0.015855916 -0.38744947 0.2909429 0.39254746
-0.047893494 -0.22680053 0.09551658 0.021925023 0.0729889 0.19514865 -0.08422109 -0.115882136
-0.17668955 0.3714762 0.14141642 -0.3004952 -0.15721406 -0.11513749 -0.259978 0.18995278
0.11877646 -0.10977698 -0.09978544 -0.14759782 -0.14987248 0.3581551 0.032402482 0.08087193
0.34331477 -0.06557981 0.20098956 0.20258994 -0.020474566 -0.20086288 0.047234006 -0.021595497
-0.06692925 -0.15785456 0.03732152 0.3932354 -0.111853465 0.21717557 0.21367429 -0.15846758
-0.07394807 -0.14545658 0.38463497 0.11239591 -0.008821311 -0.0564197 0.12628184 0.06772378
0.18767515 0.26825723 -0.05312545 -0.10619085 0.10129623 -0.29464778 -0.41701493 -0.22089432
0.26064 -0.004755487 -0.14765024 0.1064069 -0.062487334 0.08869106 -0.11624219 0.43861115
0.05388502 0.097913094 0.3512026 -0.052297093 0.15115246 0.054244395 0.2091374 0.09302657
0.023069074 0.08844894 -0.117245235 0.24370927 -0.111663274 0.22127406 0.04901686 -0.32893705
0.2337886 0.019068385 0.2880996 0.073930375 0.26343182 0.1641427 0.18988296 0.3000776
0.06723585 -0.3329104 -0.04424339 0.019497603 -0.17601016 0.1768606 -0.19393003 0.06619761
0.18336311 -0.100460894 -0.10734773 0.15406722 -0.04819142 -0.058289513 -0.020905716 0.15201716
-0.09010416 -0.21124776 -0.074384086 -0.020690909 -0.029287428 0.15396354 0.041102108 0.107184045
0.10442038 -0.2336418 0.0062417914 0.112469636 -0.0032730403 -0.08908968 0.15200852 0.14581576
0.088108584 -0.094491325 -0.56023204 -0.33951345 -0.11855773 -0.10234751 -0.34680218 0.17520857
-0.31944662 -0.18871428 -0.17921296 0.30209762 -0.096936375 -0.05786802 0.09265823 0.021760184
-0.029591048 -0.09406718 -0.090064466 -0.12516432 0.2988952 -0.32961655 0.2340344 -0.22470476
-0.18460713 -0.18014376 -0.007739797 -0.12282462 0.464937 -0.025193095 -0.06226632 0.12330533
0.109665275 0.029249217 0.15261541 0.086206295 0.11422266 0.1695828 -0.18676823 -0.21593834
-0.06544864 0.03658121 -0.014042131 0.224395 -0.01732348 -0.16815428 0.023862636 -0.08039448
-0.11727449 0.1295423 0.12220565 0.21164107 -0.11110229 -0.025986789 0.06657082 -0.40539527
-0.1813272 -0.07766066 -0.12041742 0.35349238 0.048789356 -0.16080244 0.03507786 -0.058100916
-0.23874666 0.14625365 0.069265455 -0.28717047 -0.23444374 0.029716928 -0.03116835 0.1464106
0.4236257 -0.17522128 -0.24884513 -0.29450983 0.2155032 -0.01888471 0.08720203 0.2751903
-0.10977022 -0.054298956 0.37764144 -0.25431657 0.18694589 -0.0049265386 -0.32989833 -0.12651446
0.07024033 0.20886686 -0.12629443 0.031037467 0.12584208 0.05721386 0.34546852 -0.07155079
0.004600516 0.060222145 0.46550408 -0.0016086221 -0.12895675 -0.038362134 -0.24539638 0.17893445
00000000: 747a b0be 0427 b53c 20dd c5bd 3769 523e
00000010: 4f1c b83d a1e9 b7bd 21ce 583e eac1 0f3d
00000020: 3834 28bd 95cb 79be 19aa 2c3c 98fd 76be
00000030: 4007 6ebe 527e 463e 4a2b 98be 89ac c33a
00000040: f459 19be 559e 31be a16b 00be 179f 57bd
00000050: 782a f23d bb11 57be 6f68 243e 8887 83bd
00000060: 4ce6 f03e c8ff 773e 21b4 c23e a5cc 4ebe
00000070: 44e4 81bc c75f c6be 78f6 943e fbfb c83e
00000080: f82b 44bd 663e 68be 329e c33d 1b9c b33c
00000090: 347b 953d 0cd5 473e 1b7c acbd 9d53 edbd
000000a0: 1bee 34be 2132 be3e 77cf 103e 82da 99be
000000b0: b9fc 20be 34cd ebbd d61b 85be fb82 423e
000000c0: 1341 f33d c1d2 e0bd 4f5c ccbd e223 17be
000000d0: 2c78 19be 1b60 b73e 77b8 043d 2fa0 a53d
000000e0: f4c6 af3e b54e 86bd 35d0 4d3e bd73 4f3e
000000f0: 47ba a7bc 00af 4dbe 7278 413d 0ae9 b0bc
00000100: 3412 89bd a0a4 21be 73de 183d 2656 c93e
00000110: 6e13 e5bd 4663 5e3e 6fcd 5a3e 5345 22be
00000120: 1672 97bd 92f2 14be e0ee c43e d42f e63d
00000130: 4387 10bc 5818 67bd 0750 013e c4b2 8a3d
00000140: ea2d 403e 0359 893e 129a 59bd 977a d9bd
00000150: 6674 cf3d 13dc 96be fb82 d5be 1f32 62be
00000160: 9b72 853e ebd3 9bbb a031 17be dceb d93d
00000170: b8f2 7fbd a9a3 b53d 6310 eebd a491 e03e
00000180: 8ab6 5c3d a986 c83d d4d0 b33e 7a35 56bd
00000190: b6c7 1a3e 5f2f 5e3d 1d28 563e b784 be3d
000001a0: 5bfb bc3c b824 b53d 451e f0bd ec8e 793e
000001b0: b7af e4bd ab95 623e e7c5 483d 706a a8be
000001c0: 4766 6f3e 4d35 9c3c ca81 933e cf68 973d
000001d0: 89e0 863e 0615 283e ae70 423e c5a3 993e
000001e0: f3b2 893d 3b73 aabe 8f38 35bd 70b9 9f3c
000001f0: 023c 34be f21a 353e 9895 46be 9d92 873d
00000200: 8ac3 3b3e 71be cdbd 20d9 dbbd ccc3 1d3e
00000210: 5e64 45bd fcc0 6ebd 7742 abbc 63aa 1b3e
00000220: 8888 b8bd 5551 58be af56 98bd fb7f a9bc
00000230: 30ec efbc 9ea8 1d3e af5a 283d 4f83 db3d
00000240: 5ada d53d cc3f 6fbe f187 cc3b 7b56 e63d
00000250: 8180 56bb a674 b6bd 1fa8 1b3e ba50 153e
00000260: 4672 b43d ab84 c1bd 5e6b 0fbf b5d4 adbe
00000270: 65ce f2bd 929b d1bd 0e90 b1be e069 333e
00000280: 828e a3be 513e 41be 9a83 37be 8aac 9a3e
00000290: 9486 c6bd 0407 6dbd 99c3 bd3d 6a42 b23c
000002a0: ed68 f2bc 4ba6 c0bd b873 b8bd 132b 00be
000002b0: cb08 993e 80c3 a8be b7a6 6f3e 0119 66be
000002c0: a709 3dbe 9b77 38be 1f9e fdbb 798b fbbd
000002d0: 390c ee3e c061 cebc f80a 7fbd 8187 fc3d
000002e0: 3098 e03d 0e9c ef3c 3747 1c3e ed8c b03d
000002f0: 92ed e93d 1da7 2d3e 2c40 3fbe f11e 5dbe
00000300: f009 86bd 2ed6 153d f710 66bc cec7 653e
00000310: f9e9 8dbc a330 2cbe 937b c33c dca5 a4bd
00000320: 9c2d f0bd bda6 043e f546 fa3d 70b8 583e
00000330: 9989 e3bd 3fe2 d4bc 4856 883d f88f cfbe
00000340: d6ad 39be 8d0c 9fbd 699d f6bd f4fc b43e
00000350: 59d7 473d 65a9 24be cdad 0f3d 3afb 6dbd
00000360: 017a 74be 84c3 153e 0cdb 8d3d 0208 93be
00000370: 0512 70be ea70 f33c c454 ffbc a9ec 153e
00000380: 78e5 d83e 356d 33be 42d1 7ebe fec9 96be
00000390: dfac 5c3e 1bb4 9abc fa96 b23d bee5 8c3e
000003a0: 36cf e0bd 9568 5ebd 385a c13e c835 82be
000003b0: be6e 3f3e cd6e a1bb 6fe8 a8be 028d 01be
000003c0: 2ada 8f3d 32e1 553e 5453 01be 4942 fe3c
000003d0: bfdc 003e 1559 6a3d 40e1 b03e 3889 92bd
000003e0: edbf 963b 7fab 763d 8d56 ee3e 67d8 d2ba
000003f0: 3d0d 04be 9d21 1dbd 3049 7bbe 983a 373e

critic.2.bias f4 [64]
0.057548102 0.08236258 0.010192896 0.09706486 0.057122648 0.039922662 -0.06663499 0.08071503
-0.018832626 0.050342746 -0.012647544 -0.027041176 -0.10755288 -0.096491374 -0.08368523 0.110200614
0.047555838 0.052552234 -0.050155576 -0.030521607 0.075227894 -0.056268618 0.07158269 -0.0416544
-0.035510387 -0.031536773 -0.004830719 0.05963556 0.03259651 0.04514615 -0.013825237 0.03342559
-0.015624533 -0.079271704 -0.036984503 -0.023215383 0.11738845 -0.10754796 0.010048131 -0.099243075
0.037319846 -0.035921276 -0.042176142 0.07481576 0.05089889 0.06546323 -0.07721794 0.020839201
-0.06009478 -0.06359646 0.014054161 0.12045454 0.053233877 0.04381993 0.058402076 -0.047914848
0.034697093 -0.02841806 0.07482797 0.10231009 -0.008530836 0.01132913 -0.091883145 -0.051922742
00000000: 8fb7 6b3d b6ad a83d 1b00 273c f1c9 c63d
00000010: 70f9 693d f285 233d ed77 88bd ec4d a53d
00000020: e146 9abc 3234 4e3d a537 4fbc 7585 ddbc
00000030: af44 dcbd 459d c5bd 2963 abbd dcb0 e13d
00000040: e9c9 423d 0341 573d ef6f 4dbd 7308 fabc
00000050: 1511 9a3d ec79 66bd f299 923d ce9d 2abd
00000060: 5773 11bd b42c 01bd 024b 9ebb 6b44 743d
00000070: eb83 053d 2beb 383d 3f83 62bc 45e9 083d
00000080: 0bfe 7fbc 3459 a2bd 107d 17bd 302e bebc
00000090: 5b69 f03d 1b42 dcbd eba0 243c f43f cbbd
000000a0: b2dc 183d 3022 13bd e4c0 2cbd 0139 993d
000000b0: 5b7b 503d 9611 863d 7024 9ebd f9b6 aa3c
000000c0: f225 76bd dc3e 82bd 6c43 663c dfb0 f63d
000000d0: c40b 5a3d 877c 333d 0437 6f3d 5c42 44bd
000000e0: 8a1e 0e3d fecc e8bc 683f 993d f487 d13d
000000f0: ebc4 0bbc d19d 393c 3b2d bcbd f1ac 54bd

critic.4.weight f4 [1, 64]
-1.314817 1.4566255 1.3066542 1.1503823 -1.2937235 -1.5971534 1.208963 -1.2188298
1.4596484 -1.3415298 -1.3254591 1.3007172 -1.4050927 1.2676481 -1.348508 1.3168069
1.3076776 -1.1838601 1.2933313 1.1900903 -1.3744464 -1.3767586 1.3765019 1.3254071
-1.3130281 1.6203405 -1.1590583 -1.4442873 1.2671174 1.2586255 1.1428124 1.5346658
-1.2228484 -1.3242446 -1.1394056 1.4215028 1.3920163 -1.6516185 -1.2466178 -1.3122675
1.3999608 1.1786028 -1.2178526 -1.2343147 1.3323075 1.4336238 -1.2924043 -1.1418988
-1.2849275 -1.203838 -1.2059608 1.5368574 -1.2273775 -1.2485497 -1.262381 1.3457506
-1.1826569 1.379475 -1.1910698 1.2040855 1.1747321 1.2916286 1.2330325 1.624818
00000000: ec4b a8bf b472 ba3f 7240 a73f ba3f 933f
00000010: bb98 a5bf 866f ccbf 4dbf 9a3f 9d02 9cbf
00000020: c2d5 ba3f 40b7 abbf a5a8 a9bf e77d a63f
00000030: 14da b3bf 4b42 a23f e99b acbf 218d a83f
00000040: fb61 a73f ba88 97bf e18b a53f e154 983f
00000050: dced afbf a039 b0bf 3731 b03f f1a6 a93f
00000060: 4e11 a8bf 5167 cf3f 065c 94bf 68de b8bf
00000070: e730 a23f a41a a13f ad47 923f ee6f c43f
00000080: 4c86 9cbf d980 a9bf 0bd8 91bf cef3 b53f
00000090: 972d b23f 3c68 d3bf 2c91 9fbf 62f8 a7bf
000000a0: ea31 b33f 75dc 963f 98e2 9bbf 06fe 9dbf
000000b0: 0d89 aa3f fc80 b73f 816d a5bf bd29 92bf
000000c0: 8178 a4bf 5d17 9abf ec5c 9abf beb7 c43f
000000d0: b51a 9dbf 7ad0 9fbf b395 a1bf 8e41 ac3f
000000e0: 4d61 97bf a392 b03f fa74 98bf 791f 9a3f
000000f0: 9f5d 963f 1654 a53f 02d4 9d3f 09fa cf3f

actor.0.weight f4 [64, 59]
-0.05111153 -0.2634137 -0.1234514 0.020177498 -0.38106424 0.13988931 -0.27978206 0.008407124
0.104348116 0.41718188 -0.16035429 0.09145327 0.21738733 -0.024142971 0.23012723 -0.11850788
0.06028827 -0.2477687 0.0599701 0.31219822 0.09801042 -0.09535565 0.46620026 0.028338723
-0.28861174 0.453519 -0.5681491 -0.22403216 0.37522584 0.15009524 0.032778315 0.23321347
-0.32268378 -0.26934767 -0.049950793 0.101726145 0.3231787 -0.2897002 0.111361675 -0.17428555
-0.127044 -0.030607505 0.004051703 0.16919453 0.1846137 0.09443119 -0.021455491 0.2158241
0.04308038 0.0027660364 0.10948703 -0.19162035 0.0026456057 0.020156773 0.2952112 0.042584997
-0.002067778 -0.09834198 -0.020972263 0.09663579 0.28996733 0.23319666 0.41486046 0.15669078
-0.091526076 0.15904082 0.094811566 -0.1350388 -0.2809669 0.3684644 0.025776729 -0.098259255
-0.35406476 -0.19447973 0.48207736 0.13981143 0.2515026 -0.06361518 -0.016521329 0.06847268
0.13061137 -0.26756737 -0.14771388 -0.27111202 0.11012062 0.42173237 -0.23619264 -0.7913257
0.27224687 -0.16055204 0.08828475 -0.45993862 -0.071434125 0.03586967 0.29015765 -0.07719376
-0.16622403 0.19520824 0.24981861 -0.22273417 0.16230342 -0.18270992 -0.14995123 -0.109420665
-0.255064 -0.24169964 0.00989638 -0.22162035 0.034922354 0.008502227 -0.14449777 0.27011815
0.18777403 -0.087540664 -0.061394535 -0.0068576443 -0.25519896 0.11706486 0.07531542 -0.32191378
-0.016484514 -0.416491 -0.0049672746 0.18032794 0.38070524 -0.18454176 0.14342177 0.17100771
-0.048240818 0.043824412 -0.09030736 0.38169244 0.37002584 0.3337277 -0.22336273 -0.019042142
0.45777473 -0.0094878925 0.04077182 -0.21011057 0.16767375 -0.04186121 0.124856286 0.6131432
-0.24611945 -0.003265687 -0.23234868 0.04670305 -0.06663925 -0.080903605 -0.040884547 -0.26762405
-0.13483745 0.039044682 -0.04326886 0.21471587 0.21693264 0.49067494 0.03132829 -0.054910168
0.124640524 0.22124949 0.3224366 0.33289963 -0.0066616405 0.10591107 -0.12240581 -0.23084958
-0.17848647 0.16440113 0.05649859 0.22781305 0.09485058 0.2139145 0.1429674 -0.07900032
0.115744874 -0.15592937 0.4129324 0.14593612 -0.02851865 0.12551463 -0.08491208 0.082062356
0.23854321 -0.072833404 -0.1620818 -0.0580799 0.045240846 0.21589692 0.4061296 -0.24581833
0.19491361 -0.07558717 -0.03839451 -0.07196172 -0.15293369 0.14927907 0.26344466 0.29128492
-0.2810428 0.21958598 0.26673916 -0.11357754 -0.16792902 -0.37382796 0.42884797 -0.19117498
-0.14984769 0.0038685997 0.116747476 -0.009678921 0.0059159594 0.006405926 0.1553948 0.35933647
0.06301431 -0.21938685 0.13820523 -0.32917437 0.032463238 0.03815324 0.12926748 -0.088857174
-0.031171152 -0.035532154 0.17714834 0.13596264 -0.22647956 -0.3075875 -0.016771369 -0.055856243
-0.030661263 -0.13390656 -0.11292692 -0.32522893 0.025438936 0.18332791 0.04296995 0.13256128
-0.104571976 -0.03895769 -0.021668464 0.30054253 -0.033415116 -0.21171185 0.14066906 -0.17465304
-0.027741633 -0.21216708 -0.21465254 -0.0737828 0.035462193 0.13151604 -0.2397086 -0.27949825
00000000: 535a 51bd 29de 86be 16d4 fcbd 484b a53c
00000010: da1a c3be 253f 0f3e 983f 8fbe 09be 093c
00000020: 77b4 d53d dd98 d53e ea33 24be da4b bb3d
00000030: c99a 5e3e 7bc7 c5bc 79a6 6b3e 42b4 f2bd
00000040: d5f0 763d 14b7 7dbe 35a3 753d 72d8 9f3e
00000050: b0b9 c83d d349 c3bd cdb1 ee3e 9c26 e83c
00000060: ebc4 93be a433 e83e 3872 11bf b068 65be
00000070: 9a1d c03e 91b2 193e 8e42 063d 83cf 6e3e
00000080: cf36 a5be f0e7 89be 3499 4cbd cc55 d03d
00000090: ae77 a53e 9653 94be 9711 e43d e977 32be
000000a0: d317 02be 97bc fabc 26c4 843b 5541 2d3e
000000b0: 600b 3d3e 2465 c13d 6dc3 afbc fe00 5d3e
000000c0: 0d75 303d 6446 353b bc3a e03d 2038 44be
000000d0: e661 2d3b d11f a53c ec25 973e 9b6d 2e3d
000000e0: 8f83 07bb 8567 c9bd 06ce abbc fce8 c53d
000000f0: 9976 943e 1bcb 6e3e 9768 d43e 8c73 203e
00000100: 0672 bbbd 99db 223e 912c c23d 9c47 0abe
00000110: e5da 8fbe 5ea7 bc3e b829 d33c 263c c9bd
00000120: fa47 b5be b225 47be d8d2 f63e ba2a 0f3e
00000130: f3c4 803e ad48 82bd bd57 87bc 683b 8c3d
00000140: fdbe 053e 97fe 88be 4f42 17be 32cf 8abe
00000150: eb86 e13d 4eed d73e 7cdc 71be 5294 4abf
00000160: f163 8b3e c167 24be a3ce b43d 137d ebbe
00000170: 0e4c 92bd 13ec 123d 8b8f 943e c317 9ebd
00000180: a236 2abe abe4 473e 73d0 7f3e 6d14 64be
00000190: de32 263e 4f18 3bbe d18c 19be f117 e0bd
000001a0: c097 82be 1c80 77be 6d24 223c 72f0 62be
000001b0: be0a 0f3d ed4c 0b3c 39f7 13be ed4c 8a3e
000001c0: d647 403e 8548 b3bd d678 7bbd 17b6 e0bb
000001d0: 70a9 82be b4bf ef3d f93e 9a3d e2d1 a4be
000001e0: 880a 87bc 4f3e d5be 85c4 a2bb e3a7 383e
000001f0: cceb c23e 84f8 3cbe 28dd 123e a51c 2f3e
00000200: 2a98 45bd 3a81 333d 11f3 b8bd 316d c33e
00000210: 0774 bd3e 5bde aa3e 33b9 64be 44fe 9bbc
00000220: 7361 ea3e 1b73 1bbc 5a00 273d 3a27 57be
00000230: abb2 2b3e a976 2bbd a7b4 ff3d f4f6 1c3f
00000240: bd06 7cbe 2305 56bb d0ec 6dbe b34b 3f3d
00000250: 297a 88bd cab0 a5bd 8e76 27bd 0506 89be
00000260: d412 0abe 51ed 1f3d b03a 31bd 7ade 5b3e
00000270: 9723 5e3e bf39 fb3e 1852 003d 7ce9 60bd
00000280: 8843 ff3d 3a8f 623e 6916 a53e d271 aa3e
00000290: e449 dabb e7e7 d83d e6af fabd d563 6cbe
000002a0: 28c5 36be c558 283e 116b 673d d347 693e
000002b0: 0541 c23d 670c 5b3e 0c66 123e ebca a1bd
000002c0: a60b ed3d f3ab 1fbe e06b d33e 4770 153e
000002d0: f29f e9bc e886 003e 62e6 adbd 4f10 a83d
000002e0: ac44 743e ae29 95bd c5f8 25be 30e5 6dbd
000002f0: 774e 393d 1514 5d3e 38f0 cf3e cdb7 7bbe
00000300: 6f97 473e 72cd 9abd 9043 1dbd ab60 93bd
00000310: a69a 1cbe 9ddc 183e 38e2 863e 4c23 953e
00000320: d8e4 8fbe 26db 603e 0992 883e 579b e8bd
00000330: 96f5 2bbe 6166 bfbe f691 db3e 60c3 43be
00000340: ac71 19be 5588 7d3b 4d19 ef3d 5694 1ebc
00000350: aada c13b cde8 d13b d01f 1f3e f3fa b73e
00000360: a60d 813d f2a6 60be ac85 0d3e 8b89 a8be
00000370: 2cf8 043d 9246 1c3d b25e 043e c0fa b5bd
00000380: a55a ffbc 2a8a 11bd 6066 353e ca39 0b3e
00000390: 42ea 67be 1c7c 9dbe 1c64 89bc 84c9 64bd
000003a0: 542d fbbc cd1e 09be 3b46 e7bd 6884 a6be
000003b0: 5165 d03c 50ba 3b3e 4201 303d 25be 073e
000003c0: d529 d6bd 1992 1fbd 1082 b1bc b6e0 993e
000003d0: 4ade 08bd feca 58be 8d0b 103e 3fd8 32be
000003e0: 6c42 e3bc 5442 59be e0cd 5bbe 701b 97bd
000003f0: ce40 113d 24ac 063e 2c76 75be 651a 8fbe

actor.0.bias f4 [64]
0.1364353 0.19183902 0.16154931 0.21965228 0.14732933 0.2371637 0.11293035 0.21048506
0.059831515 0.108028814 0.26861578 0.1933186 0.15120089 0.12386761 0.017726878 0.03125841
0.2729591 0.13149363 0.07562721 0.16413927 0.17353785 0.15974583 0.25535178 0.043429624
-0.03128402 -0.06961837 0.011764275 0.17254892 -0.021168942 0.037655316 0.09521898 0.14080346
-0.0047825957 0.091206595 0.027573535 -0.036462214 0.03627615 0.25233653 0.28299052 0.2425944
0.090000816 0.06343286 0.07374493 -0.01881962 -0.0086998185 0.07569687 0.14792393 0.1530195
-0.039723188 0.18882737 0.1369702 0.19368102 0.045773 0.06553208 -0.032999318 -0.008448108
0.32515642 0.22734214 0.012020325 -0.0047698948 0.20187241 -0.07183877 0.057853766 0.18872702
00000000: b2b5 0b3e 7371 443e 2f6d 253e 87ec 603e
00000010: 80dd 163e 0adb 723e 0748 e73d 6589 573e
00000020: e411 753d 363e dd3d 0288 893e 50f5 453e
00000030: 68d4 1a3e 4dae fd3d f537 913c d208 003d
00000040: 4cc1 8b3e 44a6 063e 70e2 9a3d 2014 283e
00000050: e8b3 313e 6994 233e 78bd 823e 43e3 313d
00000060: ac23 00bd 1394 8ebd f2be 403c aab0 303e
00000070: 7d6a adbc 763c 1a3d 2b02 c33d c82e 103e
00000080: 52b7 9cbb 86ca ba3d e5e1 e13c 6759 15bd
00000090: 4d96 143d 4132 813e 22e4 903e ab6a 783e
000000a0: 5952 b83d 16e9 813d 9507 973d 9b2b 9abc
000000b0: af89 0ebc f606 9b3d 5f79 173e 25b1 1c3e
000000c0: c8b4 22bd f65b 413e eb41 0c3e 5154 463e
000000d0: 787c 3b3d af35 863d 4b2a 07bd ef69 0abc
000000e0: e77a a63e 61cc 683e e6f0 443c c74c 9cbb
000000f0: a4b7 4e3e 3420 93bd 12f8 6c3d a841 413e

actor.2.weight f4 [3, 64]
0.6869355 -0.51586616 0.29075447 0.0029815952 -0.9251198 0.49472222 0.52366626 0.047241338
0.55635864 0.46678248 0.13467313 0.44349033 0.57170206 -0.8647557 0.084095895 -0.74294585
-0.3951867 0.10626814 -0.2330081 -0.096118495 0.38687608 0.8012359 -0.46915504 -0.26723057
-0.38872874 -0.23994915 0.29537153 0.91343987 0.046779398 -0.5178603 -0.26972392 -0.9153046
-0.37938872 -0.66805786 -0.7333548 -0.15617526 -0.07400766 0.028225075 0.4294614 0.07083746
-0.4870839 -0.8477396 -0.69788563 0.050733022 -0.7657716 0.69649535 0.70482886 0.46342662
-0.5065994 0.58561575 -0.36477482 0.104401 -0.24793072 0.16766341 -0.14305031 0.52049905
0.658183 0.20085685 -0.25181505 0.29371798 -1.024418 0.10258571 -0.70696104 0.37625542
-0.067541264 0.44830576 -0.058949143 0.23783112 0.048450027 0.21302986 -0.52525735 0.36364454
-0.47050852 -0.30791193 -0.03269988 -0.12677488 -0.78578174 0.5946744 -0.5031443 0.27809268
0.58996266 0.5752747 0.18183106 0.47872415 -0.027407896 -0.42953965 0.85660976 -0.47715992
-0.031578477 0.15338849 -0.8739966 -0.5466421 0.32140952 0.3209539 0.56495696 0.861796
0.5542841 0.5409697 0.2107884 -0.46863273 -0.59222174 0.10437036 -0.22708668 0.31049904
0.3828356 0.57805187 0.39092314 0.21395674 0.4942026 -0.7930192 -0.25541177 -0.2328597
0.35121202 -0.41543657 0.5566756 0.60355747 0.20343752 -0.7532868 0.04199985 -0.6618087
0.20637348 -0.07178321 0.07303224 -0.24450108 -0.035851315 -0.42996922 0.5434058 0.041187618
-0.2421186 -0.39987877 -0.53512293 -0.7584789 0.57841045 -0.47125575 -0.48603705 -0.42863294
-0.28145337 -0.24968585 -0.7329987 -0.63836694 -0.4747157 0.09672588 0.95898944 0.14570801
-0.5031124 -0.18959402 0.17675017 -0.63117266 -0.5377913 -0.52109545 -0.62123895 1.0160143
0.4247846 0.32950798 0.49079016 -0.4187611 -0.20986755 0.06669573 -0.30616683 -0.024348961
-0.11691531 -0.11081172 0.59758806 -0.2912821 0.5620402 -0.8370653 -0.858211 -0.682759
-0.43491435 0.21794645 0.22285812 0.15029941 -0.16419221 -0.095294364 -0.53225756 -0.60991955
-0.27792147 -0.2928193 -0.35557216 -0.5388216 -0.32754302 0.30972648 0.37703162 0.12787311
-0.43766963 -0.662105 0.18593872 0.0041295774 0.44054198 0.20973867 -0.09046006 -0.48553422
00000000: 01db 2f3f ce0f 04bf c5dd 943e de66 433b
00000010: a7d4 6cbf 3b4c fd3e fe0e 063f 2280 413d
00000020: 856d 0e3f 1dfe ee3e c1e7 093e 2a11 e33e
00000030: 115b 123f a160 5dbf 783a ac3d b331 3ebf
00000040: e955 cabe 1ca3 d93d ad99 6ebe c6d9 c4bd
00000050: 9f14 c63e cc1d 4d3f 1735 f0be 72d2 88be
00000060: 7407 c7be 3bb5 75be f03a 973e 32d7 693f
00000070: c19b 3f3d 7e92 04bf 4119 8abe 6751 6abf
00000080: 3d3f c2be d705 2bbf 24bd 3bbf 68ec 1fbe
00000090: 5491 97bd 4638 e73c 5de2 db3e 3b13 913d
000000a0: 1063 f9be 7605 59bf a2a8 32bf 6ecd 4f3d
000000b0: 9c09 44bf 854d 323f aa6f 343f 4146 ed3e
000000c0: 80b0 01bf eaea 153f c4c3 babe 31d0 d53d
000000d0: 8de1 7dbe f5af 2b3e c87b 12be 6d3f 053f
000000e0: ae7e 283f 6bad 4d3e e7ed 80be 3462 963e
000000f0: 2120 83bf 7518 d23d 66fb 34bf 8da4 c03e
00000100: 1353 8abd 5588 e53e a874 71bd 008a 733e
00000110: 8973 463d 8024 5a3e 4477 06bf 9e2f ba3e
00000120: 7ee6 f0be a2a6 9dbe 4ff0 05bd 46d1 01be
00000130: fe28 49bf 953c 183f 11ce 00bf 2a62 8e3e
00000140: cb07 173f 3445 133f ec31 3a3e 551b f53e
00000150: 8686 e0bc 9fec dbbe c74a 5b3f 4e4e f4be
00000160: 6f58 01bd df11 1d3e 3ebe 5fbf bdf0 0bbf
00000170: ca8f a43e 1254 a43e 05a1 103f aa9e 5c3f
00000180: 90e5 0d3f fe7c 0a3f ead8 573e a1f0 efbe
00000190: d89b 17bf 21c0 d53d 6989 68be bbf9 9e3e
000001a0: 0703 c43e 35fb 133f 1427 c83e 7a17 5b3e
000001b0: 2008 fd3e 4e03 4bbf 55c5 82be c672 6ebe
000001c0: 10d2 b33e 1ab4 d4be 4b82 0e3f be82 1a3f
000001d0: ed51 503e 67d7 40bf 0908 2c3d 4c6c 29bf
000001e0: 9253 533e 1303 93bd ed91 953d 7e5e 7abe
000001f0: d4d8 12bd ed24 dcbe a41c 0b3f 59b4 283d
00000200: f0ed 77be e9bc ccbe d1fd 08bf ac2b 42bf
00000210: b512 143f 6f48 f1be d9d9 f8be c775 dbbe
00000220: a81a 90be a6ad 7fbe cea5 3bbf 046c 23bf
00000230: f00d f3be 3818 c63d 5580 753f 7b34 153e
00000240: f9cb 00bf ef24 42be fffd 343e 8894 21bf
00000250: b1ac 09bf 8366 05bf 8409 1fbf c20c 823f
00000260: 5e7d d93e 45b5 a83e d948 fb3e db67 d6be
00000270: 85e7 56be c597 883d e6c1 9cbe 7977 c7bc
00000280: 4b71 efbd 41f1 e2bd 88fb 183f ed22 95be
00000290: dee1 0f3f e949 56bf b7b3 5bbf 4bc9 2ebf
000002a0: 18ad debe 5b2d 5f3e eb34 643e 17e8 193e
000002b0: 0122 28be b129 c3bd 0842 08bf b023 1cbf
000002c0: b94b 8ebe 69ec 95be 8e0d b6be 36f0 09bf
000002d0: b8b3 a7be 7894 9e3e 4a0a c13e 2bf1 023e
000002e0: 3c16 e0be b77f 29bf b866 3e3e 6851 873b
000002f0: b88e e13e bcc5 563e 2043 b9bd f197 f8be

actor.2.bias f4 [3]
0.09180478 0.02605274 -0.17684704
00000000: 2504 bc3d 8e6c d53c 6417 35be
